node {
  name: "imgs"
  op: "Placeholder"
  attr {
    key: "dtype"
    value {
      type: DT_FLOAT
    }
  }
  attr {
    key: "shape"
    value {
      shape {
        dim {
          size: 1
        }
        dim {
          size: 512
        }
        dim {
          size: 512
        }
        dim {
          size: 3
        }
      }
    }
  }
}
node {
  name: "e1/weights/Initializer/random_uniform/shape"
  op: "Const"
  attr {
    key: "_class"
    value {
      list {
        s: "loc:@e1/weights"
      }
    }
  }
  attr {
    key: "dtype"
    value {
      type: DT_INT32
    }
  }
  attr {
    key: "value"
    value {
      tensor {
        dtype: DT_INT32
        tensor_shape {
          dim {
            size: 4
          }
        }
        tensor_content: "\003\000\000\000\003\000\000\000\003\000\000\000\010\000\000\000"
      }
    }
  }
}
node {
  name: "e1/weights/Initializer/random_uniform/min"
  op: "Const"
  attr {
    key: "_class"
    value {
      list {
        s: "loc:@e1/weights"
      }
    }
  }
  attr {
    key: "dtype"
    value {
      type: DT_FLOAT
    }
  }
  attr {
    key: "value"
    value {
      tensor {
        dtype: DT_FLOAT
        tensor_shape {
        }
        float_val: -0.24618297815322876
      }
    }
  }
}
node {
  name: "e1/weights/Initializer/random_uniform/max"
  op: "Const"
  attr {
    key: "_class"
    value {
      list {
        s: "loc:@e1/weights"
      }
    }
  }
  attr {
    key: "dtype"
    value {
      type: DT_FLOAT
    }
  }
  attr {
    key: "value"
    value {
      tensor {
        dtype: DT_FLOAT
        tensor_shape {
        }
        float_val: 0.24618297815322876
      }
    }
  }
}
node {
  name: "e1/weights/Initializer/random_uniform/RandomUniform"
  op: "RandomUniform"
  input: "e1/weights/Initializer/random_uniform/shape"
  attr {
    key: "T"
    value {
      type: DT_INT32
    }
  }
  attr {
    key: "_class"
    value {
      list {
        s: "loc:@e1/weights"
      }
    }
  }
  attr {
    key: "dtype"
    value {
      type: DT_FLOAT
    }
  }
  attr {
    key: "seed"
    value {
      i: 0
    }
  }
  attr {
    key: "seed2"
    value {
      i: 0
    }
  }
}
node {
  name: "e1/weights/Initializer/random_uniform/sub"
  op: "Sub"
  input: "e1/weights/Initializer/random_uniform/max"
  input: "e1/weights/Initializer/random_uniform/min"
  attr {
    key: "T"
    value {
      type: DT_FLOAT
    }
  }
  attr {
    key: "_class"
    value {
      list {
        s: "loc:@e1/weights"
      }
    }
  }
}
node {
  name: "e1/weights/Initializer/random_uniform/mul"
  op: "Mul"
  input: "e1/weights/Initializer/random_uniform/RandomUniform"
  input: "e1/weights/Initializer/random_uniform/sub"
  attr {
    key: "T"
    value {
      type: DT_FLOAT
    }
  }
  attr {
    key: "_class"
    value {
      list {
        s: "loc:@e1/weights"
      }
    }
  }
}
node {
  name: "e1/weights/Initializer/random_uniform"
  op: "Add"
  input: "e1/weights/Initializer/random_uniform/mul"
  input: "e1/weights/Initializer/random_uniform/min"
  attr {
    key: "T"
    value {
      type: DT_FLOAT
    }
  }
  attr {
    key: "_class"
    value {
      list {
        s: "loc:@e1/weights"
      }
    }
  }
}
node {
  name: "e1/weights"
  op: "VariableV2"
  attr {
    key: "_class"
    value {
      list {
        s: "loc:@e1/weights"
      }
    }
  }
  attr {
    key: "container"
    value {
      s: ""
    }
  }
  attr {
    key: "dtype"
    value {
      type: DT_FLOAT
    }
  }
  attr {
    key: "shape"
    value {
      shape {
        dim {
          size: 3
        }
        dim {
          size: 3
        }
        dim {
          size: 3
        }
        dim {
          size: 8
        }
      }
    }
  }
  attr {
    key: "shared_name"
    value {
      s: ""
    }
  }
}
node {
  name: "e1/weights/Assign"
  op: "Assign"
  input: "e1/weights"
  input: "e1/weights/Initializer/random_uniform"
  attr {
    key: "T"
    value {
      type: DT_FLOAT
    }
  }
  attr {
    key: "_class"
    value {
      list {
        s: "loc:@e1/weights"
      }
    }
  }
  attr {
    key: "use_locking"
    value {
      b: true
    }
  }
  attr {
    key: "validate_shape"
    value {
      b: true
    }
  }
}
node {
  name: "e1/weights/read"
  op: "Identity"
  input: "e1/weights"
  attr {
    key: "T"
    value {
      type: DT_FLOAT
    }
  }
  attr {
    key: "_class"
    value {
      list {
        s: "loc:@e1/weights"
      }
    }
  }
}
node {
  name: "e1/biases/Initializer/zeros"
  op: "Const"
  attr {
    key: "_class"
    value {
      list {
        s: "loc:@e1/biases"
      }
    }
  }
  attr {
    key: "dtype"
    value {
      type: DT_FLOAT
    }
  }
  attr {
    key: "value"
    value {
      tensor {
        dtype: DT_FLOAT
        tensor_shape {
          dim {
            size: 8
          }
        }
        float_val: 0.0
      }
    }
  }
}
node {
  name: "e1/biases"
  op: "VariableV2"
  attr {
    key: "_class"
    value {
      list {
        s: "loc:@e1/biases"
      }
    }
  }
  attr {
    key: "container"
    value {
      s: ""
    }
  }
  attr {
    key: "dtype"
    value {
      type: DT_FLOAT
    }
  }
  attr {
    key: "shape"
    value {
      shape {
        dim {
          size: 8
        }
      }
    }
  }
  attr {
    key: "shared_name"
    value {
      s: ""
    }
  }
}
node {
  name: "e1/biases/Assign"
  op: "Assign"
  input: "e1/biases"
  input: "e1/biases/Initializer/zeros"
  attr {
    key: "T"
    value {
      type: DT_FLOAT
    }
  }
  attr {
    key: "_class"
    value {
      list {
        s: "loc:@e1/biases"
      }
    }
  }
  attr {
    key: "use_locking"
    value {
      b: true
    }
  }
  attr {
    key: "validate_shape"
    value {
      b: true
    }
  }
}
node {
  name: "e1/biases/read"
  op: "Identity"
  input: "e1/biases"
  attr {
    key: "T"
    value {
      type: DT_FLOAT
    }
  }
  attr {
    key: "_class"
    value {
      list {
        s: "loc:@e1/biases"
      }
    }
  }
}
node {
  name: "e1/dilation_rate"
  op: "Const"
  attr {
    key: "dtype"
    value {
      type: DT_INT32
    }
  }
  attr {
    key: "value"
    value {
      tensor {
        dtype: DT_INT32
        tensor_shape {
          dim {
            size: 2
          }
        }
        tensor_content: "\001\000\000\000\001\000\000\000"
      }
    }
  }
}
node {
  name: "e1/Conv2D"
  op: "Conv2D"
  input: "imgs"
  input: "e1/weights/read"
  attr {
    key: "T"
    value {
      type: DT_FLOAT
    }
  }
  attr {
    key: "data_format"
    value {
      s: "NHWC"
    }
  }
  attr {
    key: "dilations"
    value {
      list {
        i: 1
        i: 1
        i: 1
        i: 1
      }
    }
  }
  attr {
    key: "padding"
    value {
      s: "VALID"
    }
  }
  attr {
    key: "strides"
    value {
      list {
        i: 1
        i: 2
        i: 2
        i: 1
      }
    }
  }
  attr {
    key: "use_cudnn_on_gpu"
    value {
      b: true
    }
  }
}
node {
  name: "e1/BiasAdd"
  op: "BiasAdd"
  input: "e1/Conv2D"
  input: "e1/biases/read"
  attr {
    key: "T"
    value {
      type: DT_FLOAT
    }
  }
  attr {
    key: "data_format"
    value {
      s: "NHWC"
    }
  }
}
node {
  name: "e1/Relu"
  op: "Relu"
  input: "e1/BiasAdd"
  attr {
    key: "T"
    value {
      type: DT_FLOAT
    }
  }
}
node {
  name: "e2/weights/Initializer/random_uniform/shape"
  op: "Const"
  attr {
    key: "_class"
    value {
      list {
        s: "loc:@e2/weights"
      }
    }
  }
  attr {
    key: "dtype"
    value {
      type: DT_INT32
    }
  }
  attr {
    key: "value"
    value {
      tensor {
        dtype: DT_INT32
        tensor_shape {
          dim {
            size: 4
          }
        }
        tensor_content: "\003\000\000\000\003\000\000\000\010\000\000\000\020\000\000\000"
      }
    }
  }
}
node {
  name: "e2/weights/Initializer/random_uniform/min"
  op: "Const"
  attr {
    key: "_class"
    value {
      list {
        s: "loc:@e2/weights"
      }
    }
  }
  attr {
    key: "dtype"
    value {
      type: DT_FLOAT
    }
  }
  attr {
    key: "value"
    value {
      tensor {
        dtype: DT_FLOAT
        tensor_shape {
        }
        float_val: -0.1666666716337204
      }
    }
  }
}
node {
  name: "e2/weights/Initializer/random_uniform/max"
  op: "Const"
  attr {
    key: "_class"
    value {
      list {
        s: "loc:@e2/weights"
      }
    }
  }
  attr {
    key: "dtype"
    value {
      type: DT_FLOAT
    }
  }
  attr {
    key: "value"
    value {
      tensor {
        dtype: DT_FLOAT
        tensor_shape {
        }
        float_val: 0.1666666716337204
      }
    }
  }
}
node {
  name: "e2/weights/Initializer/random_uniform/RandomUniform"
  op: "RandomUniform"
  input: "e2/weights/Initializer/random_uniform/shape"
  attr {
    key: "T"
    value {
      type: DT_INT32
    }
  }
  attr {
    key: "_class"
    value {
      list {
        s: "loc:@e2/weights"
      }
    }
  }
  attr {
    key: "dtype"
    value {
      type: DT_FLOAT
    }
  }
  attr {
    key: "seed"
    value {
      i: 0
    }
  }
  attr {
    key: "seed2"
    value {
      i: 0
    }
  }
}
node {
  name: "e2/weights/Initializer/random_uniform/sub"
  op: "Sub"
  input: "e2/weights/Initializer/random_uniform/max"
  input: "e2/weights/Initializer/random_uniform/min"
  attr {
    key: "T"
    value {
      type: DT_FLOAT
    }
  }
  attr {
    key: "_class"
    value {
      list {
        s: "loc:@e2/weights"
      }
    }
  }
}
node {
  name: "e2/weights/Initializer/random_uniform/mul"
  op: "Mul"
  input: "e2/weights/Initializer/random_uniform/RandomUniform"
  input: "e2/weights/Initializer/random_uniform/sub"
  attr {
    key: "T"
    value {
      type: DT_FLOAT
    }
  }
  attr {
    key: "_class"
    value {
      list {
        s: "loc:@e2/weights"
      }
    }
  }
}
node {
  name: "e2/weights/Initializer/random_uniform"
  op: "Add"
  input: "e2/weights/Initializer/random_uniform/mul"
  input: "e2/weights/Initializer/random_uniform/min"
  attr {
    key: "T"
    value {
      type: DT_FLOAT
    }
  }
  attr {
    key: "_class"
    value {
      list {
        s: "loc:@e2/weights"
      }
    }
  }
}
node {
  name: "e2/weights"
  op: "VariableV2"
  attr {
    key: "_class"
    value {
      list {
        s: "loc:@e2/weights"
      }
    }
  }
  attr {
    key: "container"
    value {
      s: ""
    }
  }
  attr {
    key: "dtype"
    value {
      type: DT_FLOAT
    }
  }
  attr {
    key: "shape"
    value {
      shape {
        dim {
          size: 3
        }
        dim {
          size: 3
        }
        dim {
          size: 8
        }
        dim {
          size: 16
        }
      }
    }
  }
  attr {
    key: "shared_name"
    value {
      s: ""
    }
  }
}
node {
  name: "e2/weights/Assign"
  op: "Assign"
  input: "e2/weights"
  input: "e2/weights/Initializer/random_uniform"
  attr {
    key: "T"
    value {
      type: DT_FLOAT
    }
  }
  attr {
    key: "_class"
    value {
      list {
        s: "loc:@e2/weights"
      }
    }
  }
  attr {
    key: "use_locking"
    value {
      b: true
    }
  }
  attr {
    key: "validate_shape"
    value {
      b: true
    }
  }
}
node {
  name: "e2/weights/read"
  op: "Identity"
  input: "e2/weights"
  attr {
    key: "T"
    value {
      type: DT_FLOAT
    }
  }
  attr {
    key: "_class"
    value {
      list {
        s: "loc:@e2/weights"
      }
    }
  }
}
node {
  name: "e2/biases/Initializer/zeros"
  op: "Const"
  attr {
    key: "_class"
    value {
      list {
        s: "loc:@e2/biases"
      }
    }
  }
  attr {
    key: "dtype"
    value {
      type: DT_FLOAT
    }
  }
  attr {
    key: "value"
    value {
      tensor {
        dtype: DT_FLOAT
        tensor_shape {
          dim {
            size: 16
          }
        }
        float_val: 0.0
      }
    }
  }
}
node {
  name: "e2/biases"
  op: "VariableV2"
  attr {
    key: "_class"
    value {
      list {
        s: "loc:@e2/biases"
      }
    }
  }
  attr {
    key: "container"
    value {
      s: ""
    }
  }
  attr {
    key: "dtype"
    value {
      type: DT_FLOAT
    }
  }
  attr {
    key: "shape"
    value {
      shape {
        dim {
          size: 16
        }
      }
    }
  }
  attr {
    key: "shared_name"
    value {
      s: ""
    }
  }
}
node {
  name: "e2/biases/Assign"
  op: "Assign"
  input: "e2/biases"
  input: "e2/biases/Initializer/zeros"
  attr {
    key: "T"
    value {
      type: DT_FLOAT
    }
  }
  attr {
    key: "_class"
    value {
      list {
        s: "loc:@e2/biases"
      }
    }
  }
  attr {
    key: "use_locking"
    value {
      b: true
    }
  }
  attr {
    key: "validate_shape"
    value {
      b: true
    }
  }
}
node {
  name: "e2/biases/read"
  op: "Identity"
  input: "e2/biases"
  attr {
    key: "T"
    value {
      type: DT_FLOAT
    }
  }
  attr {
    key: "_class"
    value {
      list {
        s: "loc:@e2/biases"
      }
    }
  }
}
node {
  name: "e2/dilation_rate"
  op: "Const"
  attr {
    key: "dtype"
    value {
      type: DT_INT32
    }
  }
  attr {
    key: "value"
    value {
      tensor {
        dtype: DT_INT32
        tensor_shape {
          dim {
            size: 2
          }
        }
        tensor_content: "\001\000\000\000\001\000\000\000"
      }
    }
  }
}
node {
  name: "e2/Conv2D"
  op: "Conv2D"
  input: "e1/Relu"
  input: "e2/weights/read"
  attr {
    key: "T"
    value {
      type: DT_FLOAT
    }
  }
  attr {
    key: "data_format"
    value {
      s: "NHWC"
    }
  }
  attr {
    key: "dilations"
    value {
      list {
        i: 1
        i: 1
        i: 1
        i: 1
      }
    }
  }
  attr {
    key: "padding"
    value {
      s: "VALID"
    }
  }
  attr {
    key: "strides"
    value {
      list {
        i: 1
        i: 2
        i: 2
        i: 1
      }
    }
  }
  attr {
    key: "use_cudnn_on_gpu"
    value {
      b: true
    }
  }
}
node {
  name: "e2/BiasAdd"
  op: "BiasAdd"
  input: "e2/Conv2D"
  input: "e2/biases/read"
  attr {
    key: "T"
    value {
      type: DT_FLOAT
    }
  }
  attr {
    key: "data_format"
    value {
      s: "NHWC"
    }
  }
}
node {
  name: "e2/Relu"
  op: "Relu"
  input: "e2/BiasAdd"
  attr {
    key: "T"
    value {
      type: DT_FLOAT
    }
  }
}
node {
  name: "e3/weights/Initializer/random_uniform/shape"
  op: "Const"
  attr {
    key: "_class"
    value {
      list {
        s: "loc:@e3/weights"
      }
    }
  }
  attr {
    key: "dtype"
    value {
      type: DT_INT32
    }
  }
  attr {
    key: "value"
    value {
      tensor {
        dtype: DT_INT32
        tensor_shape {
          dim {
            size: 4
          }
        }
        tensor_content: "\003\000\000\000\003\000\000\000\020\000\000\000 \000\000\000"
      }
    }
  }
}
node {
  name: "e3/weights/Initializer/random_uniform/min"
  op: "Const"
  attr {
    key: "_class"
    value {
      list {
        s: "loc:@e3/weights"
      }
    }
  }
  attr {
    key: "dtype"
    value {
      type: DT_FLOAT
    }
  }
  attr {
    key: "value"
    value {
      tensor {
        dtype: DT_FLOAT
        tensor_shape {
        }
        float_val: -0.1178511306643486
      }
    }
  }
}
node {
  name: "e3/weights/Initializer/random_uniform/max"
  op: "Const"
  attr {
    key: "_class"
    value {
      list {
        s: "loc:@e3/weights"
      }
    }
  }
  attr {
    key: "dtype"
    value {
      type: DT_FLOAT
    }
  }
  attr {
    key: "value"
    value {
      tensor {
        dtype: DT_FLOAT
        tensor_shape {
        }
        float_val: 0.1178511306643486
      }
    }
  }
}
node {
  name: "e3/weights/Initializer/random_uniform/RandomUniform"
  op: "RandomUniform"
  input: "e3/weights/Initializer/random_uniform/shape"
  attr {
    key: "T"
    value {
      type: DT_INT32
    }
  }
  attr {
    key: "_class"
    value {
      list {
        s: "loc:@e3/weights"
      }
    }
  }
  attr {
    key: "dtype"
    value {
      type: DT_FLOAT
    }
  }
  attr {
    key: "seed"
    value {
      i: 0
    }
  }
  attr {
    key: "seed2"
    value {
      i: 0
    }
  }
}
node {
  name: "e3/weights/Initializer/random_uniform/sub"
  op: "Sub"
  input: "e3/weights/Initializer/random_uniform/max"
  input: "e3/weights/Initializer/random_uniform/min"
  attr {
    key: "T"
    value {
      type: DT_FLOAT
    }
  }
  attr {
    key: "_class"
    value {
      list {
        s: "loc:@e3/weights"
      }
    }
  }
}
node {
  name: "e3/weights/Initializer/random_uniform/mul"
  op: "Mul"
  input: "e3/weights/Initializer/random_uniform/RandomUniform"
  input: "e3/weights/Initializer/random_uniform/sub"
  attr {
    key: "T"
    value {
      type: DT_FLOAT
    }
  }
  attr {
    key: "_class"
    value {
      list {
        s: "loc:@e3/weights"
      }
    }
  }
}
node {
  name: "e3/weights/Initializer/random_uniform"
  op: "Add"
  input: "e3/weights/Initializer/random_uniform/mul"
  input: "e3/weights/Initializer/random_uniform/min"
  attr {
    key: "T"
    value {
      type: DT_FLOAT
    }
  }
  attr {
    key: "_class"
    value {
      list {
        s: "loc:@e3/weights"
      }
    }
  }
}
node {
  name: "e3/weights"
  op: "VariableV2"
  attr {
    key: "_class"
    value {
      list {
        s: "loc:@e3/weights"
      }
    }
  }
  attr {
    key: "container"
    value {
      s: ""
    }
  }
  attr {
    key: "dtype"
    value {
      type: DT_FLOAT
    }
  }
  attr {
    key: "shape"
    value {
      shape {
        dim {
          size: 3
        }
        dim {
          size: 3
        }
        dim {
          size: 16
        }
        dim {
          size: 32
        }
      }
    }
  }
  attr {
    key: "shared_name"
    value {
      s: ""
    }
  }
}
node {
  name: "e3/weights/Assign"
  op: "Assign"
  input: "e3/weights"
  input: "e3/weights/Initializer/random_uniform"
  attr {
    key: "T"
    value {
      type: DT_FLOAT
    }
  }
  attr {
    key: "_class"
    value {
      list {
        s: "loc:@e3/weights"
      }
    }
  }
  attr {
    key: "use_locking"
    value {
      b: true
    }
  }
  attr {
    key: "validate_shape"
    value {
      b: true
    }
  }
}
node {
  name: "e3/weights/read"
  op: "Identity"
  input: "e3/weights"
  attr {
    key: "T"
    value {
      type: DT_FLOAT
    }
  }
  attr {
    key: "_class"
    value {
      list {
        s: "loc:@e3/weights"
      }
    }
  }
}
node {
  name: "e3/biases/Initializer/zeros"
  op: "Const"
  attr {
    key: "_class"
    value {
      list {
        s: "loc:@e3/biases"
      }
    }
  }
  attr {
    key: "dtype"
    value {
      type: DT_FLOAT
    }
  }
  attr {
    key: "value"
    value {
      tensor {
        dtype: DT_FLOAT
        tensor_shape {
          dim {
            size: 32
          }
        }
        float_val: 0.0
      }
    }
  }
}
node {
  name: "e3/biases"
  op: "VariableV2"
  attr {
    key: "_class"
    value {
      list {
        s: "loc:@e3/biases"
      }
    }
  }
  attr {
    key: "container"
    value {
      s: ""
    }
  }
  attr {
    key: "dtype"
    value {
      type: DT_FLOAT
    }
  }
  attr {
    key: "shape"
    value {
      shape {
        dim {
          size: 32
        }
      }
    }
  }
  attr {
    key: "shared_name"
    value {
      s: ""
    }
  }
}
node {
  name: "e3/biases/Assign"
  op: "Assign"
  input: "e3/biases"
  input: "e3/biases/Initializer/zeros"
  attr {
    key: "T"
    value {
      type: DT_FLOAT
    }
  }
  attr {
    key: "_class"
    value {
      list {
        s: "loc:@e3/biases"
      }
    }
  }
  attr {
    key: "use_locking"
    value {
      b: true
    }
  }
  attr {
    key: "validate_shape"
    value {
      b: true
    }
  }
}
node {
  name: "e3/biases/read"
  op: "Identity"
  input: "e3/biases"
  attr {
    key: "T"
    value {
      type: DT_FLOAT
    }
  }
  attr {
    key: "_class"
    value {
      list {
        s: "loc:@e3/biases"
      }
    }
  }
}
node {
  name: "e3/dilation_rate"
  op: "Const"
  attr {
    key: "dtype"
    value {
      type: DT_INT32
    }
  }
  attr {
    key: "value"
    value {
      tensor {
        dtype: DT_INT32
        tensor_shape {
          dim {
            size: 2
          }
        }
        tensor_content: "\001\000\000\000\001\000\000\000"
      }
    }
  }
}
node {
  name: "e3/Conv2D"
  op: "Conv2D"
  input: "e2/Relu"
  input: "e3/weights/read"
  attr {
    key: "T"
    value {
      type: DT_FLOAT
    }
  }
  attr {
    key: "data_format"
    value {
      s: "NHWC"
    }
  }
  attr {
    key: "dilations"
    value {
      list {
        i: 1
        i: 1
        i: 1
        i: 1
      }
    }
  }
  attr {
    key: "padding"
    value {
      s: "VALID"
    }
  }
  attr {
    key: "strides"
    value {
      list {
        i: 1
        i: 2
        i: 2
        i: 1
      }
    }
  }
  attr {
    key: "use_cudnn_on_gpu"
    value {
      b: true
    }
  }
}
node {
  name: "e3/BiasAdd"
  op: "BiasAdd"
  input: "e3/Conv2D"
  input: "e3/biases/read"
  attr {
    key: "T"
    value {
      type: DT_FLOAT
    }
  }
  attr {
    key: "data_format"
    value {
      s: "NHWC"
    }
  }
}
node {
  name: "e3/Relu"
  op: "Relu"
  input: "e3/BiasAdd"
  attr {
    key: "T"
    value {
      type: DT_FLOAT
    }
  }
}
node {
  name: "e4/weights/Initializer/random_uniform/shape"
  op: "Const"
  attr {
    key: "_class"
    value {
      list {
        s: "loc:@e4/weights"
      }
    }
  }
  attr {
    key: "dtype"
    value {
      type: DT_INT32
    }
  }
  attr {
    key: "value"
    value {
      tensor {
        dtype: DT_INT32
        tensor_shape {
          dim {
            size: 4
          }
        }
        tensor_content: "\003\000\000\000\003\000\000\000 \000\000\000@\000\000\000"
      }
    }
  }
}
node {
  name: "e4/weights/Initializer/random_uniform/min"
  op: "Const"
  attr {
    key: "_class"
    value {
      list {
        s: "loc:@e4/weights"
      }
    }
  }
  attr {
    key: "dtype"
    value {
      type: DT_FLOAT
    }
  }
  attr {
    key: "value"
    value {
      tensor {
        dtype: DT_FLOAT
        tensor_shape {
        }
        float_val: -0.0833333358168602
      }
    }
  }
}
node {
  name: "e4/weights/Initializer/random_uniform/max"
  op: "Const"
  attr {
    key: "_class"
    value {
      list {
        s: "loc:@e4/weights"
      }
    }
  }
  attr {
    key: "dtype"
    value {
      type: DT_FLOAT
    }
  }
  attr {
    key: "value"
    value {
      tensor {
        dtype: DT_FLOAT
        tensor_shape {
        }
        float_val: 0.0833333358168602
      }
    }
  }
}
node {
  name: "e4/weights/Initializer/random_uniform/RandomUniform"
  op: "RandomUniform"
  input: "e4/weights/Initializer/random_uniform/shape"
  attr {
    key: "T"
    value {
      type: DT_INT32
    }
  }
  attr {
    key: "_class"
    value {
      list {
        s: "loc:@e4/weights"
      }
    }
  }
  attr {
    key: "dtype"
    value {
      type: DT_FLOAT
    }
  }
  attr {
    key: "seed"
    value {
      i: 0
    }
  }
  attr {
    key: "seed2"
    value {
      i: 0
    }
  }
}
node {
  name: "e4/weights/Initializer/random_uniform/sub"
  op: "Sub"
  input: "e4/weights/Initializer/random_uniform/max"
  input: "e4/weights/Initializer/random_uniform/min"
  attr {
    key: "T"
    value {
      type: DT_FLOAT
    }
  }
  attr {
    key: "_class"
    value {
      list {
        s: "loc:@e4/weights"
      }
    }
  }
}
node {
  name: "e4/weights/Initializer/random_uniform/mul"
  op: "Mul"
  input: "e4/weights/Initializer/random_uniform/RandomUniform"
  input: "e4/weights/Initializer/random_uniform/sub"
  attr {
    key: "T"
    value {
      type: DT_FLOAT
    }
  }
  attr {
    key: "_class"
    value {
      list {
        s: "loc:@e4/weights"
      }
    }
  }
}
node {
  name: "e4/weights/Initializer/random_uniform"
  op: "Add"
  input: "e4/weights/Initializer/random_uniform/mul"
  input: "e4/weights/Initializer/random_uniform/min"
  attr {
    key: "T"
    value {
      type: DT_FLOAT
    }
  }
  attr {
    key: "_class"
    value {
      list {
        s: "loc:@e4/weights"
      }
    }
  }
}
node {
  name: "e4/weights"
  op: "VariableV2"
  attr {
    key: "_class"
    value {
      list {
        s: "loc:@e4/weights"
      }
    }
  }
  attr {
    key: "container"
    value {
      s: ""
    }
  }
  attr {
    key: "dtype"
    value {
      type: DT_FLOAT
    }
  }
  attr {
    key: "shape"
    value {
      shape {
        dim {
          size: 3
        }
        dim {
          size: 3
        }
        dim {
          size: 32
        }
        dim {
          size: 64
        }
      }
    }
  }
  attr {
    key: "shared_name"
    value {
      s: ""
    }
  }
}
node {
  name: "e4/weights/Assign"
  op: "Assign"
  input: "e4/weights"
  input: "e4/weights/Initializer/random_uniform"
  attr {
    key: "T"
    value {
      type: DT_FLOAT
    }
  }
  attr {
    key: "_class"
    value {
      list {
        s: "loc:@e4/weights"
      }
    }
  }
  attr {
    key: "use_locking"
    value {
      b: true
    }
  }
  attr {
    key: "validate_shape"
    value {
      b: true
    }
  }
}
node {
  name: "e4/weights/read"
  op: "Identity"
  input: "e4/weights"
  attr {
    key: "T"
    value {
      type: DT_FLOAT
    }
  }
  attr {
    key: "_class"
    value {
      list {
        s: "loc:@e4/weights"
      }
    }
  }
}
node {
  name: "e4/biases/Initializer/zeros"
  op: "Const"
  attr {
    key: "_class"
    value {
      list {
        s: "loc:@e4/biases"
      }
    }
  }
  attr {
    key: "dtype"
    value {
      type: DT_FLOAT
    }
  }
  attr {
    key: "value"
    value {
      tensor {
        dtype: DT_FLOAT
        tensor_shape {
          dim {
            size: 64
          }
        }
        float_val: 0.0
      }
    }
  }
}
node {
  name: "e4/biases"
  op: "VariableV2"
  attr {
    key: "_class"
    value {
      list {
        s: "loc:@e4/biases"
      }
    }
  }
  attr {
    key: "container"
    value {
      s: ""
    }
  }
  attr {
    key: "dtype"
    value {
      type: DT_FLOAT
    }
  }
  attr {
    key: "shape"
    value {
      shape {
        dim {
          size: 64
        }
      }
    }
  }
  attr {
    key: "shared_name"
    value {
      s: ""
    }
  }
}
node {
  name: "e4/biases/Assign"
  op: "Assign"
  input: "e4/biases"
  input: "e4/biases/Initializer/zeros"
  attr {
    key: "T"
    value {
      type: DT_FLOAT
    }
  }
  attr {
    key: "_class"
    value {
      list {
        s: "loc:@e4/biases"
      }
    }
  }
  attr {
    key: "use_locking"
    value {
      b: true
    }
  }
  attr {
    key: "validate_shape"
    value {
      b: true
    }
  }
}
node {
  name: "e4/biases/read"
  op: "Identity"
  input: "e4/biases"
  attr {
    key: "T"
    value {
      type: DT_FLOAT
    }
  }
  attr {
    key: "_class"
    value {
      list {
        s: "loc:@e4/biases"
      }
    }
  }
}
node {
  name: "e4/dilation_rate"
  op: "Const"
  attr {
    key: "dtype"
    value {
      type: DT_INT32
    }
  }
  attr {
    key: "value"
    value {
      tensor {
        dtype: DT_INT32
        tensor_shape {
          dim {
            size: 2
          }
        }
        tensor_content: "\001\000\000\000\001\000\000\000"
      }
    }
  }
}
node {
  name: "e4/Conv2D"
  op: "Conv2D"
  input: "e3/Relu"
  input: "e4/weights/read"
  attr {
    key: "T"
    value {
      type: DT_FLOAT
    }
  }
  attr {
    key: "data_format"
    value {
      s: "NHWC"
    }
  }
  attr {
    key: "dilations"
    value {
      list {
        i: 1
        i: 1
        i: 1
        i: 1
      }
    }
  }
  attr {
    key: "padding"
    value {
      s: "VALID"
    }
  }
  attr {
    key: "strides"
    value {
      list {
        i: 1
        i: 2
        i: 2
        i: 1
      }
    }
  }
  attr {
    key: "use_cudnn_on_gpu"
    value {
      b: true
    }
  }
}
node {
  name: "e4/BiasAdd"
  op: "BiasAdd"
  input: "e4/Conv2D"
  input: "e4/biases/read"
  attr {
    key: "T"
    value {
      type: DT_FLOAT
    }
  }
  attr {
    key: "data_format"
    value {
      s: "NHWC"
    }
  }
}
node {
  name: "e4/Relu"
  op: "Relu"
  input: "e4/BiasAdd"
  attr {
    key: "T"
    value {
      type: DT_FLOAT
    }
  }
}
node {
  name: "e5/weights/Initializer/random_uniform/shape"
  op: "Const"
  attr {
    key: "_class"
    value {
      list {
        s: "loc:@e5/weights"
      }
    }
  }
  attr {
    key: "dtype"
    value {
      type: DT_INT32
    }
  }
  attr {
    key: "value"
    value {
      tensor {
        dtype: DT_INT32
        tensor_shape {
          dim {
            size: 4
          }
        }
        tensor_content: "\003\000\000\000\003\000\000\000@\000\000\000\200\000\000\000"
      }
    }
  }
}
node {
  name: "e5/weights/Initializer/random_uniform/min"
  op: "Const"
  attr {
    key: "_class"
    value {
      list {
        s: "loc:@e5/weights"
      }
    }
  }
  attr {
    key: "dtype"
    value {
      type: DT_FLOAT
    }
  }
  attr {
    key: "value"
    value {
      tensor {
        dtype: DT_FLOAT
        tensor_shape {
        }
        float_val: -0.0589255653321743
      }
    }
  }
}
node {
  name: "e5/weights/Initializer/random_uniform/max"
  op: "Const"
  attr {
    key: "_class"
    value {
      list {
        s: "loc:@e5/weights"
      }
    }
  }
  attr {
    key: "dtype"
    value {
      type: DT_FLOAT
    }
  }
  attr {
    key: "value"
    value {
      tensor {
        dtype: DT_FLOAT
        tensor_shape {
        }
        float_val: 0.0589255653321743
      }
    }
  }
}
node {
  name: "e5/weights/Initializer/random_uniform/RandomUniform"
  op: "RandomUniform"
  input: "e5/weights/Initializer/random_uniform/shape"
  attr {
    key: "T"
    value {
      type: DT_INT32
    }
  }
  attr {
    key: "_class"
    value {
      list {
        s: "loc:@e5/weights"
      }
    }
  }
  attr {
    key: "dtype"
    value {
      type: DT_FLOAT
    }
  }
  attr {
    key: "seed"
    value {
      i: 0
    }
  }
  attr {
    key: "seed2"
    value {
      i: 0
    }
  }
}
node {
  name: "e5/weights/Initializer/random_uniform/sub"
  op: "Sub"
  input: "e5/weights/Initializer/random_uniform/max"
  input: "e5/weights/Initializer/random_uniform/min"
  attr {
    key: "T"
    value {
      type: DT_FLOAT
    }
  }
  attr {
    key: "_class"
    value {
      list {
        s: "loc:@e5/weights"
      }
    }
  }
}
node {
  name: "e5/weights/Initializer/random_uniform/mul"
  op: "Mul"
  input: "e5/weights/Initializer/random_uniform/RandomUniform"
  input: "e5/weights/Initializer/random_uniform/sub"
  attr {
    key: "T"
    value {
      type: DT_FLOAT
    }
  }
  attr {
    key: "_class"
    value {
      list {
        s: "loc:@e5/weights"
      }
    }
  }
}
node {
  name: "e5/weights/Initializer/random_uniform"
  op: "Add"
  input: "e5/weights/Initializer/random_uniform/mul"
  input: "e5/weights/Initializer/random_uniform/min"
  attr {
    key: "T"
    value {
      type: DT_FLOAT
    }
  }
  attr {
    key: "_class"
    value {
      list {
        s: "loc:@e5/weights"
      }
    }
  }
}
node {
  name: "e5/weights"
  op: "VariableV2"
  attr {
    key: "_class"
    value {
      list {
        s: "loc:@e5/weights"
      }
    }
  }
  attr {
    key: "container"
    value {
      s: ""
    }
  }
  attr {
    key: "dtype"
    value {
      type: DT_FLOAT
    }
  }
  attr {
    key: "shape"
    value {
      shape {
        dim {
          size: 3
        }
        dim {
          size: 3
        }
        dim {
          size: 64
        }
        dim {
          size: 128
        }
      }
    }
  }
  attr {
    key: "shared_name"
    value {
      s: ""
    }
  }
}
node {
  name: "e5/weights/Assign"
  op: "Assign"
  input: "e5/weights"
  input: "e5/weights/Initializer/random_uniform"
  attr {
    key: "T"
    value {
      type: DT_FLOAT
    }
  }
  attr {
    key: "_class"
    value {
      list {
        s: "loc:@e5/weights"
      }
    }
  }
  attr {
    key: "use_locking"
    value {
      b: true
    }
  }
  attr {
    key: "validate_shape"
    value {
      b: true
    }
  }
}
node {
  name: "e5/weights/read"
  op: "Identity"
  input: "e5/weights"
  attr {
    key: "T"
    value {
      type: DT_FLOAT
    }
  }
  attr {
    key: "_class"
    value {
      list {
        s: "loc:@e5/weights"
      }
    }
  }
}
node {
  name: "e5/biases/Initializer/zeros"
  op: "Const"
  attr {
    key: "_class"
    value {
      list {
        s: "loc:@e5/biases"
      }
    }
  }
  attr {
    key: "dtype"
    value {
      type: DT_FLOAT
    }
  }
  attr {
    key: "value"
    value {
      tensor {
        dtype: DT_FLOAT
        tensor_shape {
          dim {
            size: 128
          }
        }
        float_val: 0.0
      }
    }
  }
}
node {
  name: "e5/biases"
  op: "VariableV2"
  attr {
    key: "_class"
    value {
      list {
        s: "loc:@e5/biases"
      }
    }
  }
  attr {
    key: "container"
    value {
      s: ""
    }
  }
  attr {
    key: "dtype"
    value {
      type: DT_FLOAT
    }
  }
  attr {
    key: "shape"
    value {
      shape {
        dim {
          size: 128
        }
      }
    }
  }
  attr {
    key: "shared_name"
    value {
      s: ""
    }
  }
}
node {
  name: "e5/biases/Assign"
  op: "Assign"
  input: "e5/biases"
  input: "e5/biases/Initializer/zeros"
  attr {
    key: "T"
    value {
      type: DT_FLOAT
    }
  }
  attr {
    key: "_class"
    value {
      list {
        s: "loc:@e5/biases"
      }
    }
  }
  attr {
    key: "use_locking"
    value {
      b: true
    }
  }
  attr {
    key: "validate_shape"
    value {
      b: true
    }
  }
}
node {
  name: "e5/biases/read"
  op: "Identity"
  input: "e5/biases"
  attr {
    key: "T"
    value {
      type: DT_FLOAT
    }
  }
  attr {
    key: "_class"
    value {
      list {
        s: "loc:@e5/biases"
      }
    }
  }
}
node {
  name: "e5/dilation_rate"
  op: "Const"
  attr {
    key: "dtype"
    value {
      type: DT_INT32
    }
  }
  attr {
    key: "value"
    value {
      tensor {
        dtype: DT_INT32
        tensor_shape {
          dim {
            size: 2
          }
        }
        tensor_content: "\001\000\000\000\001\000\000\000"
      }
    }
  }
}
node {
  name: "e5/Conv2D"
  op: "Conv2D"
  input: "e4/Relu"
  input: "e5/weights/read"
  attr {
    key: "T"
    value {
      type: DT_FLOAT
    }
  }
  attr {
    key: "data_format"
    value {
      s: "NHWC"
    }
  }
  attr {
    key: "dilations"
    value {
      list {
        i: 1
        i: 1
        i: 1
        i: 1
      }
    }
  }
  attr {
    key: "padding"
    value {
      s: "VALID"
    }
  }
  attr {
    key: "strides"
    value {
      list {
        i: 1
        i: 2
        i: 2
        i: 1
      }
    }
  }
  attr {
    key: "use_cudnn_on_gpu"
    value {
      b: true
    }
  }
}
node {
  name: "e5/BiasAdd"
  op: "BiasAdd"
  input: "e5/Conv2D"
  input: "e5/biases/read"
  attr {
    key: "T"
    value {
      type: DT_FLOAT
    }
  }
  attr {
    key: "data_format"
    value {
      s: "NHWC"
    }
  }
}
node {
  name: "e5/Relu"
  op: "Relu"
  input: "e5/BiasAdd"
  attr {
    key: "T"
    value {
      type: DT_FLOAT
    }
  }
}
node {
  name: "d1/weights/Initializer/random_uniform/shape"
  op: "Const"
  attr {
    key: "_class"
    value {
      list {
        s: "loc:@d1/weights"
      }
    }
  }
  attr {
    key: "dtype"
    value {
      type: DT_INT32
    }
  }
  attr {
    key: "value"
    value {
      tensor {
        dtype: DT_INT32
        tensor_shape {
          dim {
            size: 4
          }
        }
        tensor_content: "\003\000\000\000\003\000\000\000@\000\000\000\200\000\000\000"
      }
    }
  }
}
node {
  name: "d1/weights/Initializer/random_uniform/min"
  op: "Const"
  attr {
    key: "_class"
    value {
      list {
        s: "loc:@d1/weights"
      }
    }
  }
  attr {
    key: "dtype"
    value {
      type: DT_FLOAT
    }
  }
  attr {
    key: "value"
    value {
      tensor {
        dtype: DT_FLOAT
        tensor_shape {
        }
        float_val: -0.0589255653321743
      }
    }
  }
}
node {
  name: "d1/weights/Initializer/random_uniform/max"
  op: "Const"
  attr {
    key: "_class"
    value {
      list {
        s: "loc:@d1/weights"
      }
    }
  }
  attr {
    key: "dtype"
    value {
      type: DT_FLOAT
    }
  }
  attr {
    key: "value"
    value {
      tensor {
        dtype: DT_FLOAT
        tensor_shape {
        }
        float_val: 0.0589255653321743
      }
    }
  }
}
node {
  name: "d1/weights/Initializer/random_uniform/RandomUniform"
  op: "RandomUniform"
  input: "d1/weights/Initializer/random_uniform/shape"
  attr {
    key: "T"
    value {
      type: DT_INT32
    }
  }
  attr {
    key: "_class"
    value {
      list {
        s: "loc:@d1/weights"
      }
    }
  }
  attr {
    key: "dtype"
    value {
      type: DT_FLOAT
    }
  }
  attr {
    key: "seed"
    value {
      i: 0
    }
  }
  attr {
    key: "seed2"
    value {
      i: 0
    }
  }
}
node {
  name: "d1/weights/Initializer/random_uniform/sub"
  op: "Sub"
  input: "d1/weights/Initializer/random_uniform/max"
  input: "d1/weights/Initializer/random_uniform/min"
  attr {
    key: "T"
    value {
      type: DT_FLOAT
    }
  }
  attr {
    key: "_class"
    value {
      list {
        s: "loc:@d1/weights"
      }
    }
  }
}
node {
  name: "d1/weights/Initializer/random_uniform/mul"
  op: "Mul"
  input: "d1/weights/Initializer/random_uniform/RandomUniform"
  input: "d1/weights/Initializer/random_uniform/sub"
  attr {
    key: "T"
    value {
      type: DT_FLOAT
    }
  }
  attr {
    key: "_class"
    value {
      list {
        s: "loc:@d1/weights"
      }
    }
  }
}
node {
  name: "d1/weights/Initializer/random_uniform"
  op: "Add"
  input: "d1/weights/Initializer/random_uniform/mul"
  input: "d1/weights/Initializer/random_uniform/min"
  attr {
    key: "T"
    value {
      type: DT_FLOAT
    }
  }
  attr {
    key: "_class"
    value {
      list {
        s: "loc:@d1/weights"
      }
    }
  }
}
node {
  name: "d1/weights"
  op: "VariableV2"
  attr {
    key: "_class"
    value {
      list {
        s: "loc:@d1/weights"
      }
    }
  }
  attr {
    key: "container"
    value {
      s: ""
    }
  }
  attr {
    key: "dtype"
    value {
      type: DT_FLOAT
    }
  }
  attr {
    key: "shape"
    value {
      shape {
        dim {
          size: 3
        }
        dim {
          size: 3
        }
        dim {
          size: 64
        }
        dim {
          size: 128
        }
      }
    }
  }
  attr {
    key: "shared_name"
    value {
      s: ""
    }
  }
}
node {
  name: "d1/weights/Assign"
  op: "Assign"
  input: "d1/weights"
  input: "d1/weights/Initializer/random_uniform"
  attr {
    key: "T"
    value {
      type: DT_FLOAT
    }
  }
  attr {
    key: "_class"
    value {
      list {
        s: "loc:@d1/weights"
      }
    }
  }
  attr {
    key: "use_locking"
    value {
      b: true
    }
  }
  attr {
    key: "validate_shape"
    value {
      b: true
    }
  }
}
node {
  name: "d1/weights/read"
  op: "Identity"
  input: "d1/weights"
  attr {
    key: "T"
    value {
      type: DT_FLOAT
    }
  }
  attr {
    key: "_class"
    value {
      list {
        s: "loc:@d1/weights"
      }
    }
  }
}
node {
  name: "d1/biases/Initializer/zeros"
  op: "Const"
  attr {
    key: "_class"
    value {
      list {
        s: "loc:@d1/biases"
      }
    }
  }
  attr {
    key: "dtype"
    value {
      type: DT_FLOAT
    }
  }
  attr {
    key: "value"
    value {
      tensor {
        dtype: DT_FLOAT
        tensor_shape {
          dim {
            size: 64
          }
        }
        float_val: 0.0
      }
    }
  }
}
node {
  name: "d1/biases"
  op: "VariableV2"
  attr {
    key: "_class"
    value {
      list {
        s: "loc:@d1/biases"
      }
    }
  }
  attr {
    key: "container"
    value {
      s: ""
    }
  }
  attr {
    key: "dtype"
    value {
      type: DT_FLOAT
    }
  }
  attr {
    key: "shape"
    value {
      shape {
        dim {
          size: 64
        }
      }
    }
  }
  attr {
    key: "shared_name"
    value {
      s: ""
    }
  }
}
node {
  name: "d1/biases/Assign"
  op: "Assign"
  input: "d1/biases"
  input: "d1/biases/Initializer/zeros"
  attr {
    key: "T"
    value {
      type: DT_FLOAT
    }
  }
  attr {
    key: "_class"
    value {
      list {
        s: "loc:@d1/biases"
      }
    }
  }
  attr {
    key: "use_locking"
    value {
      b: true
    }
  }
  attr {
    key: "validate_shape"
    value {
      b: true
    }
  }
}
node {
  name: "d1/biases/read"
  op: "Identity"
  input: "d1/biases"
  attr {
    key: "T"
    value {
      type: DT_FLOAT
    }
  }
  attr {
    key: "_class"
    value {
      list {
        s: "loc:@d1/biases"
      }
    }
  }
}
node {
  name: "d1/Shape"
  op: "Const"
  attr {
    key: "dtype"
    value {
      type: DT_INT32
    }
  }
  attr {
    key: "value"
    value {
      tensor {
        dtype: DT_INT32
        tensor_shape {
          dim {
            size: 4
          }
        }
        tensor_content: "\001\000\000\000\017\000\000\000\017\000\000\000\200\000\000\000"
      }
    }
  }
}
node {
  name: "d1/strided_slice/stack"
  op: "Const"
  attr {
    key: "dtype"
    value {
      type: DT_INT32
    }
  }
  attr {
    key: "value"
    value {
      tensor {
        dtype: DT_INT32
        tensor_shape {
          dim {
            size: 1
          }
        }
        int_val: 0
      }
    }
  }
}
node {
  name: "d1/strided_slice/stack_1"
  op: "Const"
  attr {
    key: "dtype"
    value {
      type: DT_INT32
    }
  }
  attr {
    key: "value"
    value {
      tensor {
        dtype: DT_INT32
        tensor_shape {
          dim {
            size: 1
          }
        }
        int_val: 1
      }
    }
  }
}
node {
  name: "d1/strided_slice/stack_2"
  op: "Const"
  attr {
    key: "dtype"
    value {
      type: DT_INT32
    }
  }
  attr {
    key: "value"
    value {
      tensor {
        dtype: DT_INT32
        tensor_shape {
          dim {
            size: 1
          }
        }
        int_val: 1
      }
    }
  }
}
node {
  name: "d1/strided_slice"
  op: "StridedSlice"
  input: "d1/Shape"
  input: "d1/strided_slice/stack"
  input: "d1/strided_slice/stack_1"
  input: "d1/strided_slice/stack_2"
  attr {
    key: "Index"
    value {
      type: DT_INT32
    }
  }
  attr {
    key: "T"
    value {
      type: DT_INT32
    }
  }
  attr {
    key: "begin_mask"
    value {
      i: 0
    }
  }
  attr {
    key: "ellipsis_mask"
    value {
      i: 0
    }
  }
  attr {
    key: "end_mask"
    value {
      i: 0
    }
  }
  attr {
    key: "new_axis_mask"
    value {
      i: 0
    }
  }
  attr {
    key: "shrink_axis_mask"
    value {
      i: 1
    }
  }
}
node {
  name: "d1/strided_slice_1/stack"
  op: "Const"
  attr {
    key: "dtype"
    value {
      type: DT_INT32
    }
  }
  attr {
    key: "value"
    value {
      tensor {
        dtype: DT_INT32
        tensor_shape {
          dim {
            size: 1
          }
        }
        int_val: 1
      }
    }
  }
}
node {
  name: "d1/strided_slice_1/stack_1"
  op: "Const"
  attr {
    key: "dtype"
    value {
      type: DT_INT32
    }
  }
  attr {
    key: "value"
    value {
      tensor {
        dtype: DT_INT32
        tensor_shape {
          dim {
            size: 1
          }
        }
        int_val: 2
      }
    }
  }
}
node {
  name: "d1/strided_slice_1/stack_2"
  op: "Const"
  attr {
    key: "dtype"
    value {
      type: DT_INT32
    }
  }
  attr {
    key: "value"
    value {
      tensor {
        dtype: DT_INT32
        tensor_shape {
          dim {
            size: 1
          }
        }
        int_val: 1
      }
    }
  }
}
node {
  name: "d1/strided_slice_1"
  op: "StridedSlice"
  input: "d1/Shape"
  input: "d1/strided_slice_1/stack"
  input: "d1/strided_slice_1/stack_1"
  input: "d1/strided_slice_1/stack_2"
  attr {
    key: "Index"
    value {
      type: DT_INT32
    }
  }
  attr {
    key: "T"
    value {
      type: DT_INT32
    }
  }
  attr {
    key: "begin_mask"
    value {
      i: 0
    }
  }
  attr {
    key: "ellipsis_mask"
    value {
      i: 0
    }
  }
  attr {
    key: "end_mask"
    value {
      i: 0
    }
  }
  attr {
    key: "new_axis_mask"
    value {
      i: 0
    }
  }
  attr {
    key: "shrink_axis_mask"
    value {
      i: 1
    }
  }
}
node {
  name: "d1/strided_slice_2/stack"
  op: "Const"
  attr {
    key: "dtype"
    value {
      type: DT_INT32
    }
  }
  attr {
    key: "value"
    value {
      tensor {
        dtype: DT_INT32
        tensor_shape {
          dim {
            size: 1
          }
        }
        int_val: 2
      }
    }
  }
}
node {
  name: "d1/strided_slice_2/stack_1"
  op: "Const"
  attr {
    key: "dtype"
    value {
      type: DT_INT32
    }
  }
  attr {
    key: "value"
    value {
      tensor {
        dtype: DT_INT32
        tensor_shape {
          dim {
            size: 1
          }
        }
        int_val: 3
      }
    }
  }
}
node {
  name: "d1/strided_slice_2/stack_2"
  op: "Const"
  attr {
    key: "dtype"
    value {
      type: DT_INT32
    }
  }
  attr {
    key: "value"
    value {
      tensor {
        dtype: DT_INT32
        tensor_shape {
          dim {
            size: 1
          }
        }
        int_val: 1
      }
    }
  }
}
node {
  name: "d1/strided_slice_2"
  op: "StridedSlice"
  input: "d1/Shape"
  input: "d1/strided_slice_2/stack"
  input: "d1/strided_slice_2/stack_1"
  input: "d1/strided_slice_2/stack_2"
  attr {
    key: "Index"
    value {
      type: DT_INT32
    }
  }
  attr {
    key: "T"
    value {
      type: DT_INT32
    }
  }
  attr {
    key: "begin_mask"
    value {
      i: 0
    }
  }
  attr {
    key: "ellipsis_mask"
    value {
      i: 0
    }
  }
  attr {
    key: "end_mask"
    value {
      i: 0
    }
  }
  attr {
    key: "new_axis_mask"
    value {
      i: 0
    }
  }
  attr {
    key: "shrink_axis_mask"
    value {
      i: 1
    }
  }
}
node {
  name: "d1/mul/y"
  op: "Const"
  attr {
    key: "dtype"
    value {
      type: DT_INT32
    }
  }
  attr {
    key: "value"
    value {
      tensor {
        dtype: DT_INT32
        tensor_shape {
        }
        int_val: 2
      }
    }
  }
}
node {
  name: "d1/mul"
  op: "Mul"
  input: "d1/strided_slice_1"
  input: "d1/mul/y"
  attr {
    key: "T"
    value {
      type: DT_INT32
    }
  }
}
node {
  name: "d1/add/y"
  op: "Const"
  attr {
    key: "dtype"
    value {
      type: DT_INT32
    }
  }
  attr {
    key: "value"
    value {
      tensor {
        dtype: DT_INT32
        tensor_shape {
        }
        int_val: 1
      }
    }
  }
}
node {
  name: "d1/add"
  op: "Add"
  input: "d1/mul"
  input: "d1/add/y"
  attr {
    key: "T"
    value {
      type: DT_INT32
    }
  }
}
node {
  name: "d1/mul_1/y"
  op: "Const"
  attr {
    key: "dtype"
    value {
      type: DT_INT32
    }
  }
  attr {
    key: "value"
    value {
      tensor {
        dtype: DT_INT32
        tensor_shape {
        }
        int_val: 2
      }
    }
  }
}
node {
  name: "d1/mul_1"
  op: "Mul"
  input: "d1/strided_slice_2"
  input: "d1/mul_1/y"
  attr {
    key: "T"
    value {
      type: DT_INT32
    }
  }
}
node {
  name: "d1/add_1/y"
  op: "Const"
  attr {
    key: "dtype"
    value {
      type: DT_INT32
    }
  }
  attr {
    key: "value"
    value {
      tensor {
        dtype: DT_INT32
        tensor_shape {
        }
        int_val: 1
      }
    }
  }
}
node {
  name: "d1/add_1"
  op: "Add"
  input: "d1/mul_1"
  input: "d1/add_1/y"
  attr {
    key: "T"
    value {
      type: DT_INT32
    }
  }
}
node {
  name: "d1/stack/3"
  op: "Const"
  attr {
    key: "dtype"
    value {
      type: DT_INT32
    }
  }
  attr {
    key: "value"
    value {
      tensor {
        dtype: DT_INT32
        tensor_shape {
        }
        int_val: 64
      }
    }
  }
}
node {
  name: "d1/stack"
  op: "Pack"
  input: "d1/strided_slice"
  input: "d1/add"
  input: "d1/add_1"
  input: "d1/stack/3"
  attr {
    key: "N"
    value {
      i: 4
    }
  }
  attr {
    key: "T"
    value {
      type: DT_INT32
    }
  }
  attr {
    key: "axis"
    value {
      i: 0
    }
  }
}
node {
  name: "d1/conv2d_transpose"
  op: "Conv2DBackpropInput"
  input: "d1/stack"
  input: "d1/weights/read"
  input: "e5/Relu"
  attr {
    key: "T"
    value {
      type: DT_FLOAT
    }
  }
  attr {
    key: "data_format"
    value {
      s: "NHWC"
    }
  }
  attr {
    key: "dilations"
    value {
      list {
        i: 1
        i: 1
        i: 1
        i: 1
      }
    }
  }
  attr {
    key: "padding"
    value {
      s: "VALID"
    }
  }
  attr {
    key: "strides"
    value {
      list {
        i: 1
        i: 2
        i: 2
        i: 1
      }
    }
  }
  attr {
    key: "use_cudnn_on_gpu"
    value {
      b: true
    }
  }
}
node {
  name: "d1/BiasAdd"
  op: "BiasAdd"
  input: "d1/conv2d_transpose"
  input: "d1/biases/read"
  attr {
    key: "T"
    value {
      type: DT_FLOAT
    }
  }
  attr {
    key: "data_format"
    value {
      s: "NHWC"
    }
  }
}
node {
  name: "d1/Relu"
  op: "Relu"
  input: "d1/BiasAdd"
  attr {
    key: "T"
    value {
      type: DT_FLOAT
    }
  }
}
node {
  name: "d2/weights/Initializer/random_uniform/shape"
  op: "Const"
  attr {
    key: "_class"
    value {
      list {
        s: "loc:@d2/weights"
      }
    }
  }
  attr {
    key: "dtype"
    value {
      type: DT_INT32
    }
  }
  attr {
    key: "value"
    value {
      tensor {
        dtype: DT_INT32
        tensor_shape {
          dim {
            size: 4
          }
        }
        tensor_content: "\003\000\000\000\003\000\000\000 \000\000\000@\000\000\000"
      }
    }
  }
}
node {
  name: "d2/weights/Initializer/random_uniform/min"
  op: "Const"
  attr {
    key: "_class"
    value {
      list {
        s: "loc:@d2/weights"
      }
    }
  }
  attr {
    key: "dtype"
    value {
      type: DT_FLOAT
    }
  }
  attr {
    key: "value"
    value {
      tensor {
        dtype: DT_FLOAT
        tensor_shape {
        }
        float_val: -0.0833333358168602
      }
    }
  }
}
node {
  name: "d2/weights/Initializer/random_uniform/max"
  op: "Const"
  attr {
    key: "_class"
    value {
      list {
        s: "loc:@d2/weights"
      }
    }
  }
  attr {
    key: "dtype"
    value {
      type: DT_FLOAT
    }
  }
  attr {
    key: "value"
    value {
      tensor {
        dtype: DT_FLOAT
        tensor_shape {
        }
        float_val: 0.0833333358168602
      }
    }
  }
}
node {
  name: "d2/weights/Initializer/random_uniform/RandomUniform"
  op: "RandomUniform"
  input: "d2/weights/Initializer/random_uniform/shape"
  attr {
    key: "T"
    value {
      type: DT_INT32
    }
  }
  attr {
    key: "_class"
    value {
      list {
        s: "loc:@d2/weights"
      }
    }
  }
  attr {
    key: "dtype"
    value {
      type: DT_FLOAT
    }
  }
  attr {
    key: "seed"
    value {
      i: 0
    }
  }
  attr {
    key: "seed2"
    value {
      i: 0
    }
  }
}
node {
  name: "d2/weights/Initializer/random_uniform/sub"
  op: "Sub"
  input: "d2/weights/Initializer/random_uniform/max"
  input: "d2/weights/Initializer/random_uniform/min"
  attr {
    key: "T"
    value {
      type: DT_FLOAT
    }
  }
  attr {
    key: "_class"
    value {
      list {
        s: "loc:@d2/weights"
      }
    }
  }
}
node {
  name: "d2/weights/Initializer/random_uniform/mul"
  op: "Mul"
  input: "d2/weights/Initializer/random_uniform/RandomUniform"
  input: "d2/weights/Initializer/random_uniform/sub"
  attr {
    key: "T"
    value {
      type: DT_FLOAT
    }
  }
  attr {
    key: "_class"
    value {
      list {
        s: "loc:@d2/weights"
      }
    }
  }
}
node {
  name: "d2/weights/Initializer/random_uniform"
  op: "Add"
  input: "d2/weights/Initializer/random_uniform/mul"
  input: "d2/weights/Initializer/random_uniform/min"
  attr {
    key: "T"
    value {
      type: DT_FLOAT
    }
  }
  attr {
    key: "_class"
    value {
      list {
        s: "loc:@d2/weights"
      }
    }
  }
}
node {
  name: "d2/weights"
  op: "VariableV2"
  attr {
    key: "_class"
    value {
      list {
        s: "loc:@d2/weights"
      }
    }
  }
  attr {
    key: "container"
    value {
      s: ""
    }
  }
  attr {
    key: "dtype"
    value {
      type: DT_FLOAT
    }
  }
  attr {
    key: "shape"
    value {
      shape {
        dim {
          size: 3
        }
        dim {
          size: 3
        }
        dim {
          size: 32
        }
        dim {
          size: 64
        }
      }
    }
  }
  attr {
    key: "shared_name"
    value {
      s: ""
    }
  }
}
node {
  name: "d2/weights/Assign"
  op: "Assign"
  input: "d2/weights"
  input: "d2/weights/Initializer/random_uniform"
  attr {
    key: "T"
    value {
      type: DT_FLOAT
    }
  }
  attr {
    key: "_class"
    value {
      list {
        s: "loc:@d2/weights"
      }
    }
  }
  attr {
    key: "use_locking"
    value {
      b: true
    }
  }
  attr {
    key: "validate_shape"
    value {
      b: true
    }
  }
}
node {
  name: "d2/weights/read"
  op: "Identity"
  input: "d2/weights"
  attr {
    key: "T"
    value {
      type: DT_FLOAT
    }
  }
  attr {
    key: "_class"
    value {
      list {
        s: "loc:@d2/weights"
      }
    }
  }
}
node {
  name: "d2/biases/Initializer/zeros"
  op: "Const"
  attr {
    key: "_class"
    value {
      list {
        s: "loc:@d2/biases"
      }
    }
  }
  attr {
    key: "dtype"
    value {
      type: DT_FLOAT
    }
  }
  attr {
    key: "value"
    value {
      tensor {
        dtype: DT_FLOAT
        tensor_shape {
          dim {
            size: 32
          }
        }
        float_val: 0.0
      }
    }
  }
}
node {
  name: "d2/biases"
  op: "VariableV2"
  attr {
    key: "_class"
    value {
      list {
        s: "loc:@d2/biases"
      }
    }
  }
  attr {
    key: "container"
    value {
      s: ""
    }
  }
  attr {
    key: "dtype"
    value {
      type: DT_FLOAT
    }
  }
  attr {
    key: "shape"
    value {
      shape {
        dim {
          size: 32
        }
      }
    }
  }
  attr {
    key: "shared_name"
    value {
      s: ""
    }
  }
}
node {
  name: "d2/biases/Assign"
  op: "Assign"
  input: "d2/biases"
  input: "d2/biases/Initializer/zeros"
  attr {
    key: "T"
    value {
      type: DT_FLOAT
    }
  }
  attr {
    key: "_class"
    value {
      list {
        s: "loc:@d2/biases"
      }
    }
  }
  attr {
    key: "use_locking"
    value {
      b: true
    }
  }
  attr {
    key: "validate_shape"
    value {
      b: true
    }
  }
}
node {
  name: "d2/biases/read"
  op: "Identity"
  input: "d2/biases"
  attr {
    key: "T"
    value {
      type: DT_FLOAT
    }
  }
  attr {
    key: "_class"
    value {
      list {
        s: "loc:@d2/biases"
      }
    }
  }
}
node {
  name: "d2/Shape"
  op: "Const"
  attr {
    key: "dtype"
    value {
      type: DT_INT32
    }
  }
  attr {
    key: "value"
    value {
      tensor {
        dtype: DT_INT32
        tensor_shape {
          dim {
            size: 4
          }
        }
        tensor_content: "\001\000\000\000\037\000\000\000\037\000\000\000@\000\000\000"
      }
    }
  }
}
node {
  name: "d2/strided_slice/stack"
  op: "Const"
  attr {
    key: "dtype"
    value {
      type: DT_INT32
    }
  }
  attr {
    key: "value"
    value {
      tensor {
        dtype: DT_INT32
        tensor_shape {
          dim {
            size: 1
          }
        }
        int_val: 0
      }
    }
  }
}
node {
  name: "d2/strided_slice/stack_1"
  op: "Const"
  attr {
    key: "dtype"
    value {
      type: DT_INT32
    }
  }
  attr {
    key: "value"
    value {
      tensor {
        dtype: DT_INT32
        tensor_shape {
          dim {
            size: 1
          }
        }
        int_val: 1
      }
    }
  }
}
node {
  name: "d2/strided_slice/stack_2"
  op: "Const"
  attr {
    key: "dtype"
    value {
      type: DT_INT32
    }
  }
  attr {
    key: "value"
    value {
      tensor {
        dtype: DT_INT32
        tensor_shape {
          dim {
            size: 1
          }
        }
        int_val: 1
      }
    }
  }
}
node {
  name: "d2/strided_slice"
  op: "StridedSlice"
  input: "d2/Shape"
  input: "d2/strided_slice/stack"
  input: "d2/strided_slice/stack_1"
  input: "d2/strided_slice/stack_2"
  attr {
    key: "Index"
    value {
      type: DT_INT32
    }
  }
  attr {
    key: "T"
    value {
      type: DT_INT32
    }
  }
  attr {
    key: "begin_mask"
    value {
      i: 0
    }
  }
  attr {
    key: "ellipsis_mask"
    value {
      i: 0
    }
  }
  attr {
    key: "end_mask"
    value {
      i: 0
    }
  }
  attr {
    key: "new_axis_mask"
    value {
      i: 0
    }
  }
  attr {
    key: "shrink_axis_mask"
    value {
      i: 1
    }
  }
}
node {
  name: "d2/strided_slice_1/stack"
  op: "Const"
  attr {
    key: "dtype"
    value {
      type: DT_INT32
    }
  }
  attr {
    key: "value"
    value {
      tensor {
        dtype: DT_INT32
        tensor_shape {
          dim {
            size: 1
          }
        }
        int_val: 1
      }
    }
  }
}
node {
  name: "d2/strided_slice_1/stack_1"
  op: "Const"
  attr {
    key: "dtype"
    value {
      type: DT_INT32
    }
  }
  attr {
    key: "value"
    value {
      tensor {
        dtype: DT_INT32
        tensor_shape {
          dim {
            size: 1
          }
        }
        int_val: 2
      }
    }
  }
}
node {
  name: "d2/strided_slice_1/stack_2"
  op: "Const"
  attr {
    key: "dtype"
    value {
      type: DT_INT32
    }
  }
  attr {
    key: "value"
    value {
      tensor {
        dtype: DT_INT32
        tensor_shape {
          dim {
            size: 1
          }
        }
        int_val: 1
      }
    }
  }
}
node {
  name: "d2/strided_slice_1"
  op: "StridedSlice"
  input: "d2/Shape"
  input: "d2/strided_slice_1/stack"
  input: "d2/strided_slice_1/stack_1"
  input: "d2/strided_slice_1/stack_2"
  attr {
    key: "Index"
    value {
      type: DT_INT32
    }
  }
  attr {
    key: "T"
    value {
      type: DT_INT32
    }
  }
  attr {
    key: "begin_mask"
    value {
      i: 0
    }
  }
  attr {
    key: "ellipsis_mask"
    value {
      i: 0
    }
  }
  attr {
    key: "end_mask"
    value {
      i: 0
    }
  }
  attr {
    key: "new_axis_mask"
    value {
      i: 0
    }
  }
  attr {
    key: "shrink_axis_mask"
    value {
      i: 1
    }
  }
}
node {
  name: "d2/strided_slice_2/stack"
  op: "Const"
  attr {
    key: "dtype"
    value {
      type: DT_INT32
    }
  }
  attr {
    key: "value"
    value {
      tensor {
        dtype: DT_INT32
        tensor_shape {
          dim {
            size: 1
          }
        }
        int_val: 2
      }
    }
  }
}
node {
  name: "d2/strided_slice_2/stack_1"
  op: "Const"
  attr {
    key: "dtype"
    value {
      type: DT_INT32
    }
  }
  attr {
    key: "value"
    value {
      tensor {
        dtype: DT_INT32
        tensor_shape {
          dim {
            size: 1
          }
        }
        int_val: 3
      }
    }
  }
}
node {
  name: "d2/strided_slice_2/stack_2"
  op: "Const"
  attr {
    key: "dtype"
    value {
      type: DT_INT32
    }
  }
  attr {
    key: "value"
    value {
      tensor {
        dtype: DT_INT32
        tensor_shape {
          dim {
            size: 1
          }
        }
        int_val: 1
      }
    }
  }
}
node {
  name: "d2/strided_slice_2"
  op: "StridedSlice"
  input: "d2/Shape"
  input: "d2/strided_slice_2/stack"
  input: "d2/strided_slice_2/stack_1"
  input: "d2/strided_slice_2/stack_2"
  attr {
    key: "Index"
    value {
      type: DT_INT32
    }
  }
  attr {
    key: "T"
    value {
      type: DT_INT32
    }
  }
  attr {
    key: "begin_mask"
    value {
      i: 0
    }
  }
  attr {
    key: "ellipsis_mask"
    value {
      i: 0
    }
  }
  attr {
    key: "end_mask"
    value {
      i: 0
    }
  }
  attr {
    key: "new_axis_mask"
    value {
      i: 0
    }
  }
  attr {
    key: "shrink_axis_mask"
    value {
      i: 1
    }
  }
}
node {
  name: "d2/mul/y"
  op: "Const"
  attr {
    key: "dtype"
    value {
      type: DT_INT32
    }
  }
  attr {
    key: "value"
    value {
      tensor {
        dtype: DT_INT32
        tensor_shape {
        }
        int_val: 2
      }
    }
  }
}
node {
  name: "d2/mul"
  op: "Mul"
  input: "d2/strided_slice_1"
  input: "d2/mul/y"
  attr {
    key: "T"
    value {
      type: DT_INT32
    }
  }
}
node {
  name: "d2/add/y"
  op: "Const"
  attr {
    key: "dtype"
    value {
      type: DT_INT32
    }
  }
  attr {
    key: "value"
    value {
      tensor {
        dtype: DT_INT32
        tensor_shape {
        }
        int_val: 1
      }
    }
  }
}
node {
  name: "d2/add"
  op: "Add"
  input: "d2/mul"
  input: "d2/add/y"
  attr {
    key: "T"
    value {
      type: DT_INT32
    }
  }
}
node {
  name: "d2/mul_1/y"
  op: "Const"
  attr {
    key: "dtype"
    value {
      type: DT_INT32
    }
  }
  attr {
    key: "value"
    value {
      tensor {
        dtype: DT_INT32
        tensor_shape {
        }
        int_val: 2
      }
    }
  }
}
node {
  name: "d2/mul_1"
  op: "Mul"
  input: "d2/strided_slice_2"
  input: "d2/mul_1/y"
  attr {
    key: "T"
    value {
      type: DT_INT32
    }
  }
}
node {
  name: "d2/add_1/y"
  op: "Const"
  attr {
    key: "dtype"
    value {
      type: DT_INT32
    }
  }
  attr {
    key: "value"
    value {
      tensor {
        dtype: DT_INT32
        tensor_shape {
        }
        int_val: 1
      }
    }
  }
}
node {
  name: "d2/add_1"
  op: "Add"
  input: "d2/mul_1"
  input: "d2/add_1/y"
  attr {
    key: "T"
    value {
      type: DT_INT32
    }
  }
}
node {
  name: "d2/stack/3"
  op: "Const"
  attr {
    key: "dtype"
    value {
      type: DT_INT32
    }
  }
  attr {
    key: "value"
    value {
      tensor {
        dtype: DT_INT32
        tensor_shape {
        }
        int_val: 32
      }
    }
  }
}
node {
  name: "d2/stack"
  op: "Pack"
  input: "d2/strided_slice"
  input: "d2/add"
  input: "d2/add_1"
  input: "d2/stack/3"
  attr {
    key: "N"
    value {
      i: 4
    }
  }
  attr {
    key: "T"
    value {
      type: DT_INT32
    }
  }
  attr {
    key: "axis"
    value {
      i: 0
    }
  }
}
node {
  name: "d2/conv2d_transpose"
  op: "Conv2DBackpropInput"
  input: "d2/stack"
  input: "d2/weights/read"
  input: "d1/Relu"
  attr {
    key: "T"
    value {
      type: DT_FLOAT
    }
  }
  attr {
    key: "data_format"
    value {
      s: "NHWC"
    }
  }
  attr {
    key: "dilations"
    value {
      list {
        i: 1
        i: 1
        i: 1
        i: 1
      }
    }
  }
  attr {
    key: "padding"
    value {
      s: "VALID"
    }
  }
  attr {
    key: "strides"
    value {
      list {
        i: 1
        i: 2
        i: 2
        i: 1
      }
    }
  }
  attr {
    key: "use_cudnn_on_gpu"
    value {
      b: true
    }
  }
}
node {
  name: "d2/BiasAdd"
  op: "BiasAdd"
  input: "d2/conv2d_transpose"
  input: "d2/biases/read"
  attr {
    key: "T"
    value {
      type: DT_FLOAT
    }
  }
  attr {
    key: "data_format"
    value {
      s: "NHWC"
    }
  }
}
node {
  name: "d2/Relu"
  op: "Relu"
  input: "d2/BiasAdd"
  attr {
    key: "T"
    value {
      type: DT_FLOAT
    }
  }
}
node {
  name: "d3/weights/Initializer/random_uniform/shape"
  op: "Const"
  attr {
    key: "_class"
    value {
      list {
        s: "loc:@d3/weights"
      }
    }
  }
  attr {
    key: "dtype"
    value {
      type: DT_INT32
    }
  }
  attr {
    key: "value"
    value {
      tensor {
        dtype: DT_INT32
        tensor_shape {
          dim {
            size: 4
          }
        }
        tensor_content: "\003\000\000\000\003\000\000\000\020\000\000\000 \000\000\000"
      }
    }
  }
}
node {
  name: "d3/weights/Initializer/random_uniform/min"
  op: "Const"
  attr {
    key: "_class"
    value {
      list {
        s: "loc:@d3/weights"
      }
    }
  }
  attr {
    key: "dtype"
    value {
      type: DT_FLOAT
    }
  }
  attr {
    key: "value"
    value {
      tensor {
        dtype: DT_FLOAT
        tensor_shape {
        }
        float_val: -0.1178511306643486
      }
    }
  }
}
node {
  name: "d3/weights/Initializer/random_uniform/max"
  op: "Const"
  attr {
    key: "_class"
    value {
      list {
        s: "loc:@d3/weights"
      }
    }
  }
  attr {
    key: "dtype"
    value {
      type: DT_FLOAT
    }
  }
  attr {
    key: "value"
    value {
      tensor {
        dtype: DT_FLOAT
        tensor_shape {
        }
        float_val: 0.1178511306643486
      }
    }
  }
}
node {
  name: "d3/weights/Initializer/random_uniform/RandomUniform"
  op: "RandomUniform"
  input: "d3/weights/Initializer/random_uniform/shape"
  attr {
    key: "T"
    value {
      type: DT_INT32
    }
  }
  attr {
    key: "_class"
    value {
      list {
        s: "loc:@d3/weights"
      }
    }
  }
  attr {
    key: "dtype"
    value {
      type: DT_FLOAT
    }
  }
  attr {
    key: "seed"
    value {
      i: 0
    }
  }
  attr {
    key: "seed2"
    value {
      i: 0
    }
  }
}
node {
  name: "d3/weights/Initializer/random_uniform/sub"
  op: "Sub"
  input: "d3/weights/Initializer/random_uniform/max"
  input: "d3/weights/Initializer/random_uniform/min"
  attr {
    key: "T"
    value {
      type: DT_FLOAT
    }
  }
  attr {
    key: "_class"
    value {
      list {
        s: "loc:@d3/weights"
      }
    }
  }
}
node {
  name: "d3/weights/Initializer/random_uniform/mul"
  op: "Mul"
  input: "d3/weights/Initializer/random_uniform/RandomUniform"
  input: "d3/weights/Initializer/random_uniform/sub"
  attr {
    key: "T"
    value {
      type: DT_FLOAT
    }
  }
  attr {
    key: "_class"
    value {
      list {
        s: "loc:@d3/weights"
      }
    }
  }
}
node {
  name: "d3/weights/Initializer/random_uniform"
  op: "Add"
  input: "d3/weights/Initializer/random_uniform/mul"
  input: "d3/weights/Initializer/random_uniform/min"
  attr {
    key: "T"
    value {
      type: DT_FLOAT
    }
  }
  attr {
    key: "_class"
    value {
      list {
        s: "loc:@d3/weights"
      }
    }
  }
}
node {
  name: "d3/weights"
  op: "VariableV2"
  attr {
    key: "_class"
    value {
      list {
        s: "loc:@d3/weights"
      }
    }
  }
  attr {
    key: "container"
    value {
      s: ""
    }
  }
  attr {
    key: "dtype"
    value {
      type: DT_FLOAT
    }
  }
  attr {
    key: "shape"
    value {
      shape {
        dim {
          size: 3
        }
        dim {
          size: 3
        }
        dim {
          size: 16
        }
        dim {
          size: 32
        }
      }
    }
  }
  attr {
    key: "shared_name"
    value {
      s: ""
    }
  }
}
node {
  name: "d3/weights/Assign"
  op: "Assign"
  input: "d3/weights"
  input: "d3/weights/Initializer/random_uniform"
  attr {
    key: "T"
    value {
      type: DT_FLOAT
    }
  }
  attr {
    key: "_class"
    value {
      list {
        s: "loc:@d3/weights"
      }
    }
  }
  attr {
    key: "use_locking"
    value {
      b: true
    }
  }
  attr {
    key: "validate_shape"
    value {
      b: true
    }
  }
}
node {
  name: "d3/weights/read"
  op: "Identity"
  input: "d3/weights"
  attr {
    key: "T"
    value {
      type: DT_FLOAT
    }
  }
  attr {
    key: "_class"
    value {
      list {
        s: "loc:@d3/weights"
      }
    }
  }
}
node {
  name: "d3/biases/Initializer/zeros"
  op: "Const"
  attr {
    key: "_class"
    value {
      list {
        s: "loc:@d3/biases"
      }
    }
  }
  attr {
    key: "dtype"
    value {
      type: DT_FLOAT
    }
  }
  attr {
    key: "value"
    value {
      tensor {
        dtype: DT_FLOAT
        tensor_shape {
          dim {
            size: 16
          }
        }
        float_val: 0.0
      }
    }
  }
}
node {
  name: "d3/biases"
  op: "VariableV2"
  attr {
    key: "_class"
    value {
      list {
        s: "loc:@d3/biases"
      }
    }
  }
  attr {
    key: "container"
    value {
      s: ""
    }
  }
  attr {
    key: "dtype"
    value {
      type: DT_FLOAT
    }
  }
  attr {
    key: "shape"
    value {
      shape {
        dim {
          size: 16
        }
      }
    }
  }
  attr {
    key: "shared_name"
    value {
      s: ""
    }
  }
}
node {
  name: "d3/biases/Assign"
  op: "Assign"
  input: "d3/biases"
  input: "d3/biases/Initializer/zeros"
  attr {
    key: "T"
    value {
      type: DT_FLOAT
    }
  }
  attr {
    key: "_class"
    value {
      list {
        s: "loc:@d3/biases"
      }
    }
  }
  attr {
    key: "use_locking"
    value {
      b: true
    }
  }
  attr {
    key: "validate_shape"
    value {
      b: true
    }
  }
}
node {
  name: "d3/biases/read"
  op: "Identity"
  input: "d3/biases"
  attr {
    key: "T"
    value {
      type: DT_FLOAT
    }
  }
  attr {
    key: "_class"
    value {
      list {
        s: "loc:@d3/biases"
      }
    }
  }
}
node {
  name: "d3/Shape"
  op: "Const"
  attr {
    key: "dtype"
    value {
      type: DT_INT32
    }
  }
  attr {
    key: "value"
    value {
      tensor {
        dtype: DT_INT32
        tensor_shape {
          dim {
            size: 4
          }
        }
        tensor_content: "\001\000\000\000?\000\000\000?\000\000\000 \000\000\000"
      }
    }
  }
}
node {
  name: "d3/strided_slice/stack"
  op: "Const"
  attr {
    key: "dtype"
    value {
      type: DT_INT32
    }
  }
  attr {
    key: "value"
    value {
      tensor {
        dtype: DT_INT32
        tensor_shape {
          dim {
            size: 1
          }
        }
        int_val: 0
      }
    }
  }
}
node {
  name: "d3/strided_slice/stack_1"
  op: "Const"
  attr {
    key: "dtype"
    value {
      type: DT_INT32
    }
  }
  attr {
    key: "value"
    value {
      tensor {
        dtype: DT_INT32
        tensor_shape {
          dim {
            size: 1
          }
        }
        int_val: 1
      }
    }
  }
}
node {
  name: "d3/strided_slice/stack_2"
  op: "Const"
  attr {
    key: "dtype"
    value {
      type: DT_INT32
    }
  }
  attr {
    key: "value"
    value {
      tensor {
        dtype: DT_INT32
        tensor_shape {
          dim {
            size: 1
          }
        }
        int_val: 1
      }
    }
  }
}
node {
  name: "d3/strided_slice"
  op: "StridedSlice"
  input: "d3/Shape"
  input: "d3/strided_slice/stack"
  input: "d3/strided_slice/stack_1"
  input: "d3/strided_slice/stack_2"
  attr {
    key: "Index"
    value {
      type: DT_INT32
    }
  }
  attr {
    key: "T"
    value {
      type: DT_INT32
    }
  }
  attr {
    key: "begin_mask"
    value {
      i: 0
    }
  }
  attr {
    key: "ellipsis_mask"
    value {
      i: 0
    }
  }
  attr {
    key: "end_mask"
    value {
      i: 0
    }
  }
  attr {
    key: "new_axis_mask"
    value {
      i: 0
    }
  }
  attr {
    key: "shrink_axis_mask"
    value {
      i: 1
    }
  }
}
node {
  name: "d3/strided_slice_1/stack"
  op: "Const"
  attr {
    key: "dtype"
    value {
      type: DT_INT32
    }
  }
  attr {
    key: "value"
    value {
      tensor {
        dtype: DT_INT32
        tensor_shape {
          dim {
            size: 1
          }
        }
        int_val: 1
      }
    }
  }
}
node {
  name: "d3/strided_slice_1/stack_1"
  op: "Const"
  attr {
    key: "dtype"
    value {
      type: DT_INT32
    }
  }
  attr {
    key: "value"
    value {
      tensor {
        dtype: DT_INT32
        tensor_shape {
          dim {
            size: 1
          }
        }
        int_val: 2
      }
    }
  }
}
node {
  name: "d3/strided_slice_1/stack_2"
  op: "Const"
  attr {
    key: "dtype"
    value {
      type: DT_INT32
    }
  }
  attr {
    key: "value"
    value {
      tensor {
        dtype: DT_INT32
        tensor_shape {
          dim {
            size: 1
          }
        }
        int_val: 1
      }
    }
  }
}
node {
  name: "d3/strided_slice_1"
  op: "StridedSlice"
  input: "d3/Shape"
  input: "d3/strided_slice_1/stack"
  input: "d3/strided_slice_1/stack_1"
  input: "d3/strided_slice_1/stack_2"
  attr {
    key: "Index"
    value {
      type: DT_INT32
    }
  }
  attr {
    key: "T"
    value {
      type: DT_INT32
    }
  }
  attr {
    key: "begin_mask"
    value {
      i: 0
    }
  }
  attr {
    key: "ellipsis_mask"
    value {
      i: 0
    }
  }
  attr {
    key: "end_mask"
    value {
      i: 0
    }
  }
  attr {
    key: "new_axis_mask"
    value {
      i: 0
    }
  }
  attr {
    key: "shrink_axis_mask"
    value {
      i: 1
    }
  }
}
node {
  name: "d3/strided_slice_2/stack"
  op: "Const"
  attr {
    key: "dtype"
    value {
      type: DT_INT32
    }
  }
  attr {
    key: "value"
    value {
      tensor {
        dtype: DT_INT32
        tensor_shape {
          dim {
            size: 1
          }
        }
        int_val: 2
      }
    }
  }
}
node {
  name: "d3/strided_slice_2/stack_1"
  op: "Const"
  attr {
    key: "dtype"
    value {
      type: DT_INT32
    }
  }
  attr {
    key: "value"
    value {
      tensor {
        dtype: DT_INT32
        tensor_shape {
          dim {
            size: 1
          }
        }
        int_val: 3
      }
    }
  }
}
node {
  name: "d3/strided_slice_2/stack_2"
  op: "Const"
  attr {
    key: "dtype"
    value {
      type: DT_INT32
    }
  }
  attr {
    key: "value"
    value {
      tensor {
        dtype: DT_INT32
        tensor_shape {
          dim {
            size: 1
          }
        }
        int_val: 1
      }
    }
  }
}
node {
  name: "d3/strided_slice_2"
  op: "StridedSlice"
  input: "d3/Shape"
  input: "d3/strided_slice_2/stack"
  input: "d3/strided_slice_2/stack_1"
  input: "d3/strided_slice_2/stack_2"
  attr {
    key: "Index"
    value {
      type: DT_INT32
    }
  }
  attr {
    key: "T"
    value {
      type: DT_INT32
    }
  }
  attr {
    key: "begin_mask"
    value {
      i: 0
    }
  }
  attr {
    key: "ellipsis_mask"
    value {
      i: 0
    }
  }
  attr {
    key: "end_mask"
    value {
      i: 0
    }
  }
  attr {
    key: "new_axis_mask"
    value {
      i: 0
    }
  }
  attr {
    key: "shrink_axis_mask"
    value {
      i: 1
    }
  }
}
node {
  name: "d3/mul/y"
  op: "Const"
  attr {
    key: "dtype"
    value {
      type: DT_INT32
    }
  }
  attr {
    key: "value"
    value {
      tensor {
        dtype: DT_INT32
        tensor_shape {
        }
        int_val: 2
      }
    }
  }
}
node {
  name: "d3/mul"
  op: "Mul"
  input: "d3/strided_slice_1"
  input: "d3/mul/y"
  attr {
    key: "T"
    value {
      type: DT_INT32
    }
  }
}
node {
  name: "d3/add/y"
  op: "Const"
  attr {
    key: "dtype"
    value {
      type: DT_INT32
    }
  }
  attr {
    key: "value"
    value {
      tensor {
        dtype: DT_INT32
        tensor_shape {
        }
        int_val: 1
      }
    }
  }
}
node {
  name: "d3/add"
  op: "Add"
  input: "d3/mul"
  input: "d3/add/y"
  attr {
    key: "T"
    value {
      type: DT_INT32
    }
  }
}
node {
  name: "d3/mul_1/y"
  op: "Const"
  attr {
    key: "dtype"
    value {
      type: DT_INT32
    }
  }
  attr {
    key: "value"
    value {
      tensor {
        dtype: DT_INT32
        tensor_shape {
        }
        int_val: 2
      }
    }
  }
}
node {
  name: "d3/mul_1"
  op: "Mul"
  input: "d3/strided_slice_2"
  input: "d3/mul_1/y"
  attr {
    key: "T"
    value {
      type: DT_INT32
    }
  }
}
node {
  name: "d3/add_1/y"
  op: "Const"
  attr {
    key: "dtype"
    value {
      type: DT_INT32
    }
  }
  attr {
    key: "value"
    value {
      tensor {
        dtype: DT_INT32
        tensor_shape {
        }
        int_val: 1
      }
    }
  }
}
node {
  name: "d3/add_1"
  op: "Add"
  input: "d3/mul_1"
  input: "d3/add_1/y"
  attr {
    key: "T"
    value {
      type: DT_INT32
    }
  }
}
node {
  name: "d3/stack/3"
  op: "Const"
  attr {
    key: "dtype"
    value {
      type: DT_INT32
    }
  }
  attr {
    key: "value"
    value {
      tensor {
        dtype: DT_INT32
        tensor_shape {
        }
        int_val: 16
      }
    }
  }
}
node {
  name: "d3/stack"
  op: "Pack"
  input: "d3/strided_slice"
  input: "d3/add"
  input: "d3/add_1"
  input: "d3/stack/3"
  attr {
    key: "N"
    value {
      i: 4
    }
  }
  attr {
    key: "T"
    value {
      type: DT_INT32
    }
  }
  attr {
    key: "axis"
    value {
      i: 0
    }
  }
}
node {
  name: "d3/conv2d_transpose"
  op: "Conv2DBackpropInput"
  input: "d3/stack"
  input: "d3/weights/read"
  input: "d2/Relu"
  attr {
    key: "T"
    value {
      type: DT_FLOAT
    }
  }
  attr {
    key: "data_format"
    value {
      s: "NHWC"
    }
  }
  attr {
    key: "dilations"
    value {
      list {
        i: 1
        i: 1
        i: 1
        i: 1
      }
    }
  }
  attr {
    key: "padding"
    value {
      s: "VALID"
    }
  }
  attr {
    key: "strides"
    value {
      list {
        i: 1
        i: 2
        i: 2
        i: 1
      }
    }
  }
  attr {
    key: "use_cudnn_on_gpu"
    value {
      b: true
    }
  }
}
node {
  name: "d3/BiasAdd"
  op: "BiasAdd"
  input: "d3/conv2d_transpose"
  input: "d3/biases/read"
  attr {
    key: "T"
    value {
      type: DT_FLOAT
    }
  }
  attr {
    key: "data_format"
    value {
      s: "NHWC"
    }
  }
}
node {
  name: "d3/Relu"
  op: "Relu"
  input: "d3/BiasAdd"
  attr {
    key: "T"
    value {
      type: DT_FLOAT
    }
  }
}
node {
  name: "logits/weights/Initializer/random_uniform/shape"
  op: "Const"
  attr {
    key: "_class"
    value {
      list {
        s: "loc:@logits/weights"
      }
    }
  }
  attr {
    key: "dtype"
    value {
      type: DT_INT32
    }
  }
  attr {
    key: "value"
    value {
      tensor {
        dtype: DT_INT32
        tensor_shape {
          dim {
            size: 4
          }
        }
        tensor_content: "\001\000\000\000\001\000\000\000\020\000\000\000\001\000\000\000"
      }
    }
  }
}
node {
  name: "logits/weights/Initializer/random_uniform/min"
  op: "Const"
  attr {
    key: "_class"
    value {
      list {
        s: "loc:@logits/weights"
      }
    }
  }
  attr {
    key: "dtype"
    value {
      type: DT_FLOAT
    }
  }
  attr {
    key: "value"
    value {
      tensor {
        dtype: DT_FLOAT
        tensor_shape {
        }
        float_val: -0.5940885543823242
      }
    }
  }
}
node {
  name: "logits/weights/Initializer/random_uniform/max"
  op: "Const"
  attr {
    key: "_class"
    value {
      list {
        s: "loc:@logits/weights"
      }
    }
  }
  attr {
    key: "dtype"
    value {
      type: DT_FLOAT
    }
  }
  attr {
    key: "value"
    value {
      tensor {
        dtype: DT_FLOAT
        tensor_shape {
        }
        float_val: 0.5940885543823242
      }
    }
  }
}
node {
  name: "logits/weights/Initializer/random_uniform/RandomUniform"
  op: "RandomUniform"
  input: "logits/weights/Initializer/random_uniform/shape"
  attr {
    key: "T"
    value {
      type: DT_INT32
    }
  }
  attr {
    key: "_class"
    value {
      list {
        s: "loc:@logits/weights"
      }
    }
  }
  attr {
    key: "dtype"
    value {
      type: DT_FLOAT
    }
  }
  attr {
    key: "seed"
    value {
      i: 0
    }
  }
  attr {
    key: "seed2"
    value {
      i: 0
    }
  }
}
node {
  name: "logits/weights/Initializer/random_uniform/sub"
  op: "Sub"
  input: "logits/weights/Initializer/random_uniform/max"
  input: "logits/weights/Initializer/random_uniform/min"
  attr {
    key: "T"
    value {
      type: DT_FLOAT
    }
  }
  attr {
    key: "_class"
    value {
      list {
        s: "loc:@logits/weights"
      }
    }
  }
}
node {
  name: "logits/weights/Initializer/random_uniform/mul"
  op: "Mul"
  input: "logits/weights/Initializer/random_uniform/RandomUniform"
  input: "logits/weights/Initializer/random_uniform/sub"
  attr {
    key: "T"
    value {
      type: DT_FLOAT
    }
  }
  attr {
    key: "_class"
    value {
      list {
        s: "loc:@logits/weights"
      }
    }
  }
}
node {
  name: "logits/weights/Initializer/random_uniform"
  op: "Add"
  input: "logits/weights/Initializer/random_uniform/mul"
  input: "logits/weights/Initializer/random_uniform/min"
  attr {
    key: "T"
    value {
      type: DT_FLOAT
    }
  }
  attr {
    key: "_class"
    value {
      list {
        s: "loc:@logits/weights"
      }
    }
  }
}
node {
  name: "logits/weights"
  op: "VariableV2"
  attr {
    key: "_class"
    value {
      list {
        s: "loc:@logits/weights"
      }
    }
  }
  attr {
    key: "container"
    value {
      s: ""
    }
  }
  attr {
    key: "dtype"
    value {
      type: DT_FLOAT
    }
  }
  attr {
    key: "shape"
    value {
      shape {
        dim {
          size: 1
        }
        dim {
          size: 1
        }
        dim {
          size: 16
        }
        dim {
          size: 1
        }
      }
    }
  }
  attr {
    key: "shared_name"
    value {
      s: ""
    }
  }
}
node {
  name: "logits/weights/Assign"
  op: "Assign"
  input: "logits/weights"
  input: "logits/weights/Initializer/random_uniform"
  attr {
    key: "T"
    value {
      type: DT_FLOAT
    }
  }
  attr {
    key: "_class"
    value {
      list {
        s: "loc:@logits/weights"
      }
    }
  }
  attr {
    key: "use_locking"
    value {
      b: true
    }
  }
  attr {
    key: "validate_shape"
    value {
      b: true
    }
  }
}
node {
  name: "logits/weights/read"
  op: "Identity"
  input: "logits/weights"
  attr {
    key: "T"
    value {
      type: DT_FLOAT
    }
  }
  attr {
    key: "_class"
    value {
      list {
        s: "loc:@logits/weights"
      }
    }
  }
}
node {
  name: "logits/biases/Initializer/zeros"
  op: "Const"
  attr {
    key: "_class"
    value {
      list {
        s: "loc:@logits/biases"
      }
    }
  }
  attr {
    key: "dtype"
    value {
      type: DT_FLOAT
    }
  }
  attr {
    key: "value"
    value {
      tensor {
        dtype: DT_FLOAT
        tensor_shape {
          dim {
            size: 1
          }
        }
        float_val: 0.0
      }
    }
  }
}
node {
  name: "logits/biases"
  op: "VariableV2"
  attr {
    key: "_class"
    value {
      list {
        s: "loc:@logits/biases"
      }
    }
  }
  attr {
    key: "container"
    value {
      s: ""
    }
  }
  attr {
    key: "dtype"
    value {
      type: DT_FLOAT
    }
  }
  attr {
    key: "shape"
    value {
      shape {
        dim {
          size: 1
        }
      }
    }
  }
  attr {
    key: "shared_name"
    value {
      s: ""
    }
  }
}
node {
  name: "logits/biases/Assign"
  op: "Assign"
  input: "logits/biases"
  input: "logits/biases/Initializer/zeros"
  attr {
    key: "T"
    value {
      type: DT_FLOAT
    }
  }
  attr {
    key: "_class"
    value {
      list {
        s: "loc:@logits/biases"
      }
    }
  }
  attr {
    key: "use_locking"
    value {
      b: true
    }
  }
  attr {
    key: "validate_shape"
    value {
      b: true
    }
  }
}
node {
  name: "logits/biases/read"
  op: "Identity"
  input: "logits/biases"
  attr {
    key: "T"
    value {
      type: DT_FLOAT
    }
  }
  attr {
    key: "_class"
    value {
      list {
        s: "loc:@logits/biases"
      }
    }
  }
}
node {
  name: "logits/dilation_rate"
  op: "Const"
  attr {
    key: "dtype"
    value {
      type: DT_INT32
    }
  }
  attr {
    key: "value"
    value {
      tensor {
        dtype: DT_INT32
        tensor_shape {
          dim {
            size: 2
          }
        }
        tensor_content: "\001\000\000\000\001\000\000\000"
      }
    }
  }
}
node {
  name: "logits/Conv2D"
  op: "Conv2D"
  input: "d3/Relu"
  input: "logits/weights/read"
  attr {
    key: "T"
    value {
      type: DT_FLOAT
    }
  }
  attr {
    key: "data_format"
    value {
      s: "NHWC"
    }
  }
  attr {
    key: "dilations"
    value {
      list {
        i: 1
        i: 1
        i: 1
        i: 1
      }
    }
  }
  attr {
    key: "padding"
    value {
      s: "VALID"
    }
  }
  attr {
    key: "strides"
    value {
      list {
        i: 1
        i: 1
        i: 1
        i: 1
      }
    }
  }
  attr {
    key: "use_cudnn_on_gpu"
    value {
      b: true
    }
  }
}
node {
  name: "logits/BiasAdd"
  op: "BiasAdd"
  input: "logits/Conv2D"
  input: "logits/biases/read"
  attr {
    key: "T"
    value {
      type: DT_FLOAT
    }
  }
  attr {
    key: "data_format"
    value {
      s: "NHWC"
    }
  }
}
node {
  name: "output"
  op: "Sigmoid"
  input: "logits/BiasAdd"
  attr {
    key: "T"
    value {
      type: DT_FLOAT
    }
  }
}
node {
  name: "label"
  op: "Placeholder"
  attr {
    key: "dtype"
    value {
      type: DT_FLOAT
    }
  }
  attr {
    key: "shape"
    value {
      shape {
        dim {
          size: 1
        }
        dim {
          size: 127
        }
        dim {
          size: 127
        }
        dim {
          size: 1
        }
      }
    }
  }
}
node {
  name: "logistic_loss/zeros_like/shape_as_tensor"
  op: "Const"
  attr {
    key: "dtype"
    value {
      type: DT_INT32
    }
  }
  attr {
    key: "value"
    value {
      tensor {
        dtype: DT_INT32
        tensor_shape {
          dim {
            size: 4
          }
        }
        tensor_content: "\001\000\000\000\177\000\000\000\177\000\000\000\001\000\000\000"
      }
    }
  }
}
node {
  name: "logistic_loss/zeros_like/Const"
  op: "Const"
  attr {
    key: "dtype"
    value {
      type: DT_FLOAT
    }
  }
  attr {
    key: "value"
    value {
      tensor {
        dtype: DT_FLOAT
        tensor_shape {
        }
        float_val: 0.0
      }
    }
  }
}
node {
  name: "logistic_loss/zeros_like"
  op: "Fill"
  input: "logistic_loss/zeros_like/shape_as_tensor"
  input: "logistic_loss/zeros_like/Const"
  attr {
    key: "T"
    value {
      type: DT_FLOAT
    }
  }
  attr {
    key: "index_type"
    value {
      type: DT_INT32
    }
  }
}
node {
  name: "logistic_loss/GreaterEqual"
  op: "GreaterEqual"
  input: "logits/BiasAdd"
  input: "logistic_loss/zeros_like"
  attr {
    key: "T"
    value {
      type: DT_FLOAT
    }
  }
}
node {
  name: "logistic_loss/Select"
  op: "Select"
  input: "logistic_loss/GreaterEqual"
  input: "logits/BiasAdd"
  input: "logistic_loss/zeros_like"
  attr {
    key: "T"
    value {
      type: DT_FLOAT
    }
  }
}
node {
  name: "logistic_loss/Neg"
  op: "Neg"
  input: "logits/BiasAdd"
  attr {
    key: "T"
    value {
      type: DT_FLOAT
    }
  }
}
node {
  name: "logistic_loss/Select_1"
  op: "Select"
  input: "logistic_loss/GreaterEqual"
  input: "logistic_loss/Neg"
  input: "logits/BiasAdd"
  attr {
    key: "T"
    value {
      type: DT_FLOAT
    }
  }
}
node {
  name: "logistic_loss/mul"
  op: "Mul"
  input: "logits/BiasAdd"
  input: "label"
  attr {
    key: "T"
    value {
      type: DT_FLOAT
    }
  }
}
node {
  name: "logistic_loss/sub"
  op: "Sub"
  input: "logistic_loss/Select"
  input: "logistic_loss/mul"
  attr {
    key: "T"
    value {
      type: DT_FLOAT
    }
  }
}
node {
  name: "logistic_loss/Exp"
  op: "Exp"
  input: "logistic_loss/Select_1"
  attr {
    key: "T"
    value {
      type: DT_FLOAT
    }
  }
}
node {
  name: "logistic_loss/Log1p"
  op: "Log1p"
  input: "logistic_loss/Exp"
  attr {
    key: "T"
    value {
      type: DT_FLOAT
    }
  }
}
node {
  name: "logistic_loss"
  op: "Add"
  input: "logistic_loss/sub"
  input: "logistic_loss/Log1p"
  attr {
    key: "T"
    value {
      type: DT_FLOAT
    }
  }
}
node {
  name: "Const"
  op: "Const"
  attr {
    key: "dtype"
    value {
      type: DT_INT32
    }
  }
  attr {
    key: "value"
    value {
      tensor {
        dtype: DT_INT32
        tensor_shape {
          dim {
            size: 4
          }
        }
        tensor_content: "\000\000\000\000\001\000\000\000\002\000\000\000\003\000\000\000"
      }
    }
  }
}
node {
  name: "Mean"
  op: "Mean"
  input: "logistic_loss"
  input: "Const"
  attr {
    key: "T"
    value {
      type: DT_FLOAT
    }
  }
  attr {
    key: "Tidx"
    value {
      type: DT_INT32
    }
  }
  attr {
    key: "keep_dims"
    value {
      b: false
    }
  }
}
node {
  name: "gradients/Shape"
  op: "Const"
  attr {
    key: "dtype"
    value {
      type: DT_INT32
    }
  }
  attr {
    key: "value"
    value {
      tensor {
        dtype: DT_INT32
        tensor_shape {
          dim {
          }
        }
      }
    }
  }
}
node {
  name: "gradients/grad_ys_0"
  op: "Const"
  attr {
    key: "dtype"
    value {
      type: DT_FLOAT
    }
  }
  attr {
    key: "value"
    value {
      tensor {
        dtype: DT_FLOAT
        tensor_shape {
        }
        float_val: 1.0
      }
    }
  }
}
node {
  name: "gradients/Fill"
  op: "Fill"
  input: "gradients/Shape"
  input: "gradients/grad_ys_0"
  attr {
    key: "T"
    value {
      type: DT_FLOAT
    }
  }
  attr {
    key: "index_type"
    value {
      type: DT_INT32
    }
  }
}
node {
  name: "gradients/Mean_grad/Reshape/shape"
  op: "Const"
  attr {
    key: "dtype"
    value {
      type: DT_INT32
    }
  }
  attr {
    key: "value"
    value {
      tensor {
        dtype: DT_INT32
        tensor_shape {
          dim {
            size: 4
          }
        }
        tensor_content: "\001\000\000\000\001\000\000\000\001\000\000\000\001\000\000\000"
      }
    }
  }
}
node {
  name: "gradients/Mean_grad/Reshape"
  op: "Reshape"
  input: "gradients/Fill"
  input: "gradients/Mean_grad/Reshape/shape"
  attr {
    key: "T"
    value {
      type: DT_FLOAT
    }
  }
  attr {
    key: "Tshape"
    value {
      type: DT_INT32
    }
  }
}
node {
  name: "gradients/Mean_grad/Const"
  op: "Const"
  attr {
    key: "dtype"
    value {
      type: DT_INT32
    }
  }
  attr {
    key: "value"
    value {
      tensor {
        dtype: DT_INT32
        tensor_shape {
          dim {
            size: 4
          }
        }
        tensor_content: "\001\000\000\000\177\000\000\000\177\000\000\000\001\000\000\000"
      }
    }
  }
}
node {
  name: "gradients/Mean_grad/Tile"
  op: "Tile"
  input: "gradients/Mean_grad/Reshape"
  input: "gradients/Mean_grad/Const"
  attr {
    key: "T"
    value {
      type: DT_FLOAT
    }
  }
  attr {
    key: "Tmultiples"
    value {
      type: DT_INT32
    }
  }
}
node {
  name: "gradients/Mean_grad/Const_1"
  op: "Const"
  attr {
    key: "dtype"
    value {
      type: DT_FLOAT
    }
  }
  attr {
    key: "value"
    value {
      tensor {
        dtype: DT_FLOAT
        tensor_shape {
        }
        float_val: 16129.0
      }
    }
  }
}
node {
  name: "gradients/Mean_grad/truediv"
  op: "RealDiv"
  input: "gradients/Mean_grad/Tile"
  input: "gradients/Mean_grad/Const_1"
  attr {
    key: "T"
    value {
      type: DT_FLOAT
    }
  }
}
node {
  name: "gradients/logistic_loss_grad/tuple/group_deps"
  op: "NoOp"
  input: "^gradients/Mean_grad/truediv"
}
node {
  name: "gradients/logistic_loss_grad/tuple/control_dependency"
  op: "Identity"
  input: "gradients/Mean_grad/truediv"
  input: "^gradients/logistic_loss_grad/tuple/group_deps"
  attr {
    key: "T"
    value {
      type: DT_FLOAT
    }
  }
  attr {
    key: "_class"
    value {
      list {
        s: "loc:@gradients/Mean_grad/truediv"
      }
    }
  }
}
node {
  name: "gradients/logistic_loss_grad/tuple/control_dependency_1"
  op: "Identity"
  input: "gradients/Mean_grad/truediv"
  input: "^gradients/logistic_loss_grad/tuple/group_deps"
  attr {
    key: "T"
    value {
      type: DT_FLOAT
    }
  }
  attr {
    key: "_class"
    value {
      list {
        s: "loc:@gradients/Mean_grad/truediv"
      }
    }
  }
}
node {
  name: "gradients/logistic_loss/sub_grad/Neg"
  op: "Neg"
  input: "gradients/logistic_loss_grad/tuple/control_dependency"
  attr {
    key: "T"
    value {
      type: DT_FLOAT
    }
  }
}
node {
  name: "gradients/logistic_loss/sub_grad/tuple/group_deps"
  op: "NoOp"
  input: "^gradients/logistic_loss/sub_grad/Neg"
  input: "^gradients/logistic_loss_grad/tuple/control_dependency"
}
node {
  name: "gradients/logistic_loss/sub_grad/tuple/control_dependency"
  op: "Identity"
  input: "gradients/logistic_loss_grad/tuple/control_dependency"
  input: "^gradients/logistic_loss/sub_grad/tuple/group_deps"
  attr {
    key: "T"
    value {
      type: DT_FLOAT
    }
  }
  attr {
    key: "_class"
    value {
      list {
        s: "loc:@gradients/Mean_grad/truediv"
      }
    }
  }
}
node {
  name: "gradients/logistic_loss/sub_grad/tuple/control_dependency_1"
  op: "Identity"
  input: "gradients/logistic_loss/sub_grad/Neg"
  input: "^gradients/logistic_loss/sub_grad/tuple/group_deps"
  attr {
    key: "T"
    value {
      type: DT_FLOAT
    }
  }
  attr {
    key: "_class"
    value {
      list {
        s: "loc:@gradients/logistic_loss/sub_grad/Neg"
      }
    }
  }
}
node {
  name: "gradients/logistic_loss/Log1p_grad/add/x"
  op: "Const"
  input: "^gradients/logistic_loss_grad/tuple/control_dependency_1"
  attr {
    key: "dtype"
    value {
      type: DT_FLOAT
    }
  }
  attr {
    key: "value"
    value {
      tensor {
        dtype: DT_FLOAT
        tensor_shape {
        }
        float_val: 1.0
      }
    }
  }
}
node {
  name: "gradients/logistic_loss/Log1p_grad/add"
  op: "Add"
  input: "gradients/logistic_loss/Log1p_grad/add/x"
  input: "logistic_loss/Exp"
  attr {
    key: "T"
    value {
      type: DT_FLOAT
    }
  }
}
node {
  name: "gradients/logistic_loss/Log1p_grad/Reciprocal"
  op: "Reciprocal"
  input: "gradients/logistic_loss/Log1p_grad/add"
  attr {
    key: "T"
    value {
      type: DT_FLOAT
    }
  }
}
node {
  name: "gradients/logistic_loss/Log1p_grad/mul"
  op: "Mul"
  input: "gradients/logistic_loss_grad/tuple/control_dependency_1"
  input: "gradients/logistic_loss/Log1p_grad/Reciprocal"
  attr {
    key: "T"
    value {
      type: DT_FLOAT
    }
  }
}
node {
  name: "gradients/logistic_loss/Select_grad/zeros_like/shape_as_tensor"
  op: "Const"
  attr {
    key: "dtype"
    value {
      type: DT_INT32
    }
  }
  attr {
    key: "value"
    value {
      tensor {
        dtype: DT_INT32
        tensor_shape {
          dim {
            size: 4
          }
        }
        tensor_content: "\001\000\000\000\177\000\000\000\177\000\000\000\001\000\000\000"
      }
    }
  }
}
node {
  name: "gradients/logistic_loss/Select_grad/zeros_like/Const"
  op: "Const"
  attr {
    key: "dtype"
    value {
      type: DT_FLOAT
    }
  }
  attr {
    key: "value"
    value {
      tensor {
        dtype: DT_FLOAT
        tensor_shape {
        }
        float_val: 0.0
      }
    }
  }
}
node {
  name: "gradients/logistic_loss/Select_grad/zeros_like"
  op: "Fill"
  input: "gradients/logistic_loss/Select_grad/zeros_like/shape_as_tensor"
  input: "gradients/logistic_loss/Select_grad/zeros_like/Const"
  attr {
    key: "T"
    value {
      type: DT_FLOAT
    }
  }
  attr {
    key: "index_type"
    value {
      type: DT_INT32
    }
  }
}
node {
  name: "gradients/logistic_loss/Select_grad/Select"
  op: "Select"
  input: "logistic_loss/GreaterEqual"
  input: "gradients/logistic_loss/sub_grad/tuple/control_dependency"
  input: "gradients/logistic_loss/Select_grad/zeros_like"
  attr {
    key: "T"
    value {
      type: DT_FLOAT
    }
  }
}
node {
  name: "gradients/logistic_loss/Select_grad/Select_1"
  op: "Select"
  input: "logistic_loss/GreaterEqual"
  input: "gradients/logistic_loss/Select_grad/zeros_like"
  input: "gradients/logistic_loss/sub_grad/tuple/control_dependency"
  attr {
    key: "T"
    value {
      type: DT_FLOAT
    }
  }
}
node {
  name: "gradients/logistic_loss/Select_grad/tuple/group_deps"
  op: "NoOp"
  input: "^gradients/logistic_loss/Select_grad/Select"
  input: "^gradients/logistic_loss/Select_grad/Select_1"
}
node {
  name: "gradients/logistic_loss/Select_grad/tuple/control_dependency"
  op: "Identity"
  input: "gradients/logistic_loss/Select_grad/Select"
  input: "^gradients/logistic_loss/Select_grad/tuple/group_deps"
  attr {
    key: "T"
    value {
      type: DT_FLOAT
    }
  }
  attr {
    key: "_class"
    value {
      list {
        s: "loc:@gradients/logistic_loss/Select_grad/Select"
      }
    }
  }
}
node {
  name: "gradients/logistic_loss/Select_grad/tuple/control_dependency_1"
  op: "Identity"
  input: "gradients/logistic_loss/Select_grad/Select_1"
  input: "^gradients/logistic_loss/Select_grad/tuple/group_deps"
  attr {
    key: "T"
    value {
      type: DT_FLOAT
    }
  }
  attr {
    key: "_class"
    value {
      list {
        s: "loc:@gradients/logistic_loss/Select_grad/Select_1"
      }
    }
  }
}
node {
  name: "gradients/logistic_loss/mul_grad/Mul"
  op: "Mul"
  input: "gradients/logistic_loss/sub_grad/tuple/control_dependency_1"
  input: "label"
  attr {
    key: "T"
    value {
      type: DT_FLOAT
    }
  }
}
node {
  name: "gradients/logistic_loss/mul_grad/Mul_1"
  op: "Mul"
  input: "gradients/logistic_loss/sub_grad/tuple/control_dependency_1"
  input: "logits/BiasAdd"
  attr {
    key: "T"
    value {
      type: DT_FLOAT
    }
  }
}
node {
  name: "gradients/logistic_loss/mul_grad/tuple/group_deps"
  op: "NoOp"
  input: "^gradients/logistic_loss/mul_grad/Mul"
  input: "^gradients/logistic_loss/mul_grad/Mul_1"
}
node {
  name: "gradients/logistic_loss/mul_grad/tuple/control_dependency"
  op: "Identity"
  input: "gradients/logistic_loss/mul_grad/Mul"
  input: "^gradients/logistic_loss/mul_grad/tuple/group_deps"
  attr {
    key: "T"
    value {
      type: DT_FLOAT
    }
  }
  attr {
    key: "_class"
    value {
      list {
        s: "loc:@gradients/logistic_loss/mul_grad/Mul"
      }
    }
  }
}
node {
  name: "gradients/logistic_loss/mul_grad/tuple/control_dependency_1"
  op: "Identity"
  input: "gradients/logistic_loss/mul_grad/Mul_1"
  input: "^gradients/logistic_loss/mul_grad/tuple/group_deps"
  attr {
    key: "T"
    value {
      type: DT_FLOAT
    }
  }
  attr {
    key: "_class"
    value {
      list {
        s: "loc:@gradients/logistic_loss/mul_grad/Mul_1"
      }
    }
  }
}
node {
  name: "gradients/logistic_loss/Exp_grad/mul"
  op: "Mul"
  input: "gradients/logistic_loss/Log1p_grad/mul"
  input: "logistic_loss/Exp"
  attr {
    key: "T"
    value {
      type: DT_FLOAT
    }
  }
}
node {
  name: "gradients/logistic_loss/Select_1_grad/zeros_like/shape_as_tensor"
  op: "Const"
  attr {
    key: "dtype"
    value {
      type: DT_INT32
    }
  }
  attr {
    key: "value"
    value {
      tensor {
        dtype: DT_INT32
        tensor_shape {
          dim {
            size: 4
          }
        }
        tensor_content: "\001\000\000\000\177\000\000\000\177\000\000\000\001\000\000\000"
      }
    }
  }
}
node {
  name: "gradients/logistic_loss/Select_1_grad/zeros_like/Const"
  op: "Const"
  attr {
    key: "dtype"
    value {
      type: DT_FLOAT
    }
  }
  attr {
    key: "value"
    value {
      tensor {
        dtype: DT_FLOAT
        tensor_shape {
        }
        float_val: 0.0
      }
    }
  }
}
node {
  name: "gradients/logistic_loss/Select_1_grad/zeros_like"
  op: "Fill"
  input: "gradients/logistic_loss/Select_1_grad/zeros_like/shape_as_tensor"
  input: "gradients/logistic_loss/Select_1_grad/zeros_like/Const"
  attr {
    key: "T"
    value {
      type: DT_FLOAT
    }
  }
  attr {
    key: "index_type"
    value {
      type: DT_INT32
    }
  }
}
node {
  name: "gradients/logistic_loss/Select_1_grad/Select"
  op: "Select"
  input: "logistic_loss/GreaterEqual"
  input: "gradients/logistic_loss/Exp_grad/mul"
  input: "gradients/logistic_loss/Select_1_grad/zeros_like"
  attr {
    key: "T"
    value {
      type: DT_FLOAT
    }
  }
}
node {
  name: "gradients/logistic_loss/Select_1_grad/Select_1"
  op: "Select"
  input: "logistic_loss/GreaterEqual"
  input: "gradients/logistic_loss/Select_1_grad/zeros_like"
  input: "gradients/logistic_loss/Exp_grad/mul"
  attr {
    key: "T"
    value {
      type: DT_FLOAT
    }
  }
}
node {
  name: "gradients/logistic_loss/Select_1_grad/tuple/group_deps"
  op: "NoOp"
  input: "^gradients/logistic_loss/Select_1_grad/Select"
  input: "^gradients/logistic_loss/Select_1_grad/Select_1"
}
node {
  name: "gradients/logistic_loss/Select_1_grad/tuple/control_dependency"
  op: "Identity"
  input: "gradients/logistic_loss/Select_1_grad/Select"
  input: "^gradients/logistic_loss/Select_1_grad/tuple/group_deps"
  attr {
    key: "T"
    value {
      type: DT_FLOAT
    }
  }
  attr {
    key: "_class"
    value {
      list {
        s: "loc:@gradients/logistic_loss/Select_1_grad/Select"
      }
    }
  }
}
node {
  name: "gradients/logistic_loss/Select_1_grad/tuple/control_dependency_1"
  op: "Identity"
  input: "gradients/logistic_loss/Select_1_grad/Select_1"
  input: "^gradients/logistic_loss/Select_1_grad/tuple/group_deps"
  attr {
    key: "T"
    value {
      type: DT_FLOAT
    }
  }
  attr {
    key: "_class"
    value {
      list {
        s: "loc:@gradients/logistic_loss/Select_1_grad/Select_1"
      }
    }
  }
}
node {
  name: "gradients/logistic_loss/Neg_grad/Neg"
  op: "Neg"
  input: "gradients/logistic_loss/Select_1_grad/tuple/control_dependency"
  attr {
    key: "T"
    value {
      type: DT_FLOAT
    }
  }
}
node {
  name: "gradients/AddN"
  op: "AddN"
  input: "gradients/logistic_loss/Select_grad/tuple/control_dependency"
  input: "gradients/logistic_loss/mul_grad/tuple/control_dependency"
  input: "gradients/logistic_loss/Select_1_grad/tuple/control_dependency_1"
  input: "gradients/logistic_loss/Neg_grad/Neg"
  attr {
    key: "N"
    value {
      i: 4
    }
  }
  attr {
    key: "T"
    value {
      type: DT_FLOAT
    }
  }
  attr {
    key: "_class"
    value {
      list {
        s: "loc:@gradients/logistic_loss/Select_grad/Select"
      }
    }
  }
}
node {
  name: "gradients/logits/BiasAdd_grad/BiasAddGrad"
  op: "BiasAddGrad"
  input: "gradients/AddN"
  attr {
    key: "T"
    value {
      type: DT_FLOAT
    }
  }
  attr {
    key: "data_format"
    value {
      s: "NHWC"
    }
  }
}
node {
  name: "gradients/logits/BiasAdd_grad/tuple/group_deps"
  op: "NoOp"
  input: "^gradients/AddN"
  input: "^gradients/logits/BiasAdd_grad/BiasAddGrad"
}
node {
  name: "gradients/logits/BiasAdd_grad/tuple/control_dependency"
  op: "Identity"
  input: "gradients/AddN"
  input: "^gradients/logits/BiasAdd_grad/tuple/group_deps"
  attr {
    key: "T"
    value {
      type: DT_FLOAT
    }
  }
  attr {
    key: "_class"
    value {
      list {
        s: "loc:@gradients/logistic_loss/Select_grad/Select"
      }
    }
  }
}
node {
  name: "gradients/logits/BiasAdd_grad/tuple/control_dependency_1"
  op: "Identity"
  input: "gradients/logits/BiasAdd_grad/BiasAddGrad"
  input: "^gradients/logits/BiasAdd_grad/tuple/group_deps"
  attr {
    key: "T"
    value {
      type: DT_FLOAT
    }
  }
  attr {
    key: "_class"
    value {
      list {
        s: "loc:@gradients/logits/BiasAdd_grad/BiasAddGrad"
      }
    }
  }
}
node {
  name: "gradients/logits/Conv2D_grad/ShapeN"
  op: "ShapeN"
  input: "d3/Relu"
  input: "logits/weights/read"
  attr {
    key: "N"
    value {
      i: 2
    }
  }
  attr {
    key: "T"
    value {
      type: DT_FLOAT
    }
  }
  attr {
    key: "out_type"
    value {
      type: DT_INT32
    }
  }
}
node {
  name: "gradients/logits/Conv2D_grad/Conv2DBackpropInput"
  op: "Conv2DBackpropInput"
  input: "gradients/logits/Conv2D_grad/ShapeN"
  input: "logits/weights/read"
  input: "gradients/logits/BiasAdd_grad/tuple/control_dependency"
  attr {
    key: "T"
    value {
      type: DT_FLOAT
    }
  }
  attr {
    key: "data_format"
    value {
      s: "NHWC"
    }
  }
  attr {
    key: "dilations"
    value {
      list {
        i: 1
        i: 1
        i: 1
        i: 1
      }
    }
  }
  attr {
    key: "padding"
    value {
      s: "VALID"
    }
  }
  attr {
    key: "strides"
    value {
      list {
        i: 1
        i: 1
        i: 1
        i: 1
      }
    }
  }
  attr {
    key: "use_cudnn_on_gpu"
    value {
      b: true
    }
  }
}
node {
  name: "gradients/logits/Conv2D_grad/Conv2DBackpropFilter"
  op: "Conv2DBackpropFilter"
  input: "d3/Relu"
  input: "gradients/logits/Conv2D_grad/ShapeN:1"
  input: "gradients/logits/BiasAdd_grad/tuple/control_dependency"
  attr {
    key: "T"
    value {
      type: DT_FLOAT
    }
  }
  attr {
    key: "data_format"
    value {
      s: "NHWC"
    }
  }
  attr {
    key: "dilations"
    value {
      list {
        i: 1
        i: 1
        i: 1
        i: 1
      }
    }
  }
  attr {
    key: "padding"
    value {
      s: "VALID"
    }
  }
  attr {
    key: "strides"
    value {
      list {
        i: 1
        i: 1
        i: 1
        i: 1
      }
    }
  }
  attr {
    key: "use_cudnn_on_gpu"
    value {
      b: true
    }
  }
}
node {
  name: "gradients/logits/Conv2D_grad/tuple/group_deps"
  op: "NoOp"
  input: "^gradients/logits/Conv2D_grad/Conv2DBackpropFilter"
  input: "^gradients/logits/Conv2D_grad/Conv2DBackpropInput"
}
node {
  name: "gradients/logits/Conv2D_grad/tuple/control_dependency"
  op: "Identity"
  input: "gradients/logits/Conv2D_grad/Conv2DBackpropInput"
  input: "^gradients/logits/Conv2D_grad/tuple/group_deps"
  attr {
    key: "T"
    value {
      type: DT_FLOAT
    }
  }
  attr {
    key: "_class"
    value {
      list {
        s: "loc:@gradients/logits/Conv2D_grad/Conv2DBackpropInput"
      }
    }
  }
}
node {
  name: "gradients/logits/Conv2D_grad/tuple/control_dependency_1"
  op: "Identity"
  input: "gradients/logits/Conv2D_grad/Conv2DBackpropFilter"
  input: "^gradients/logits/Conv2D_grad/tuple/group_deps"
  attr {
    key: "T"
    value {
      type: DT_FLOAT
    }
  }
  attr {
    key: "_class"
    value {
      list {
        s: "loc:@gradients/logits/Conv2D_grad/Conv2DBackpropFilter"
      }
    }
  }
}
node {
  name: "gradients/d3/Relu_grad/ReluGrad"
  op: "ReluGrad"
  input: "gradients/logits/Conv2D_grad/tuple/control_dependency"
  input: "d3/Relu"
  attr {
    key: "T"
    value {
      type: DT_FLOAT
    }
  }
}
node {
  name: "gradients/d3/BiasAdd_grad/BiasAddGrad"
  op: "BiasAddGrad"
  input: "gradients/d3/Relu_grad/ReluGrad"
  attr {
    key: "T"
    value {
      type: DT_FLOAT
    }
  }
  attr {
    key: "data_format"
    value {
      s: "NHWC"
    }
  }
}
node {
  name: "gradients/d3/BiasAdd_grad/tuple/group_deps"
  op: "NoOp"
  input: "^gradients/d3/BiasAdd_grad/BiasAddGrad"
  input: "^gradients/d3/Relu_grad/ReluGrad"
}
node {
  name: "gradients/d3/BiasAdd_grad/tuple/control_dependency"
  op: "Identity"
  input: "gradients/d3/Relu_grad/ReluGrad"
  input: "^gradients/d3/BiasAdd_grad/tuple/group_deps"
  attr {
    key: "T"
    value {
      type: DT_FLOAT
    }
  }
  attr {
    key: "_class"
    value {
      list {
        s: "loc:@gradients/d3/Relu_grad/ReluGrad"
      }
    }
  }
}
node {
  name: "gradients/d3/BiasAdd_grad/tuple/control_dependency_1"
  op: "Identity"
  input: "gradients/d3/BiasAdd_grad/BiasAddGrad"
  input: "^gradients/d3/BiasAdd_grad/tuple/group_deps"
  attr {
    key: "T"
    value {
      type: DT_FLOAT
    }
  }
  attr {
    key: "_class"
    value {
      list {
        s: "loc:@gradients/d3/BiasAdd_grad/BiasAddGrad"
      }
    }
  }
}
node {
  name: "gradients/d3/conv2d_transpose_grad/Shape"
  op: "Const"
  attr {
    key: "dtype"
    value {
      type: DT_INT32
    }
  }
  attr {
    key: "value"
    value {
      tensor {
        dtype: DT_INT32
        tensor_shape {
          dim {
            size: 4
          }
        }
        tensor_content: "\003\000\000\000\003\000\000\000\020\000\000\000 \000\000\000"
      }
    }
  }
}
node {
  name: "gradients/d3/conv2d_transpose_grad/Conv2DBackpropFilter"
  op: "Conv2DBackpropFilter"
  input: "gradients/d3/BiasAdd_grad/tuple/control_dependency"
  input: "gradients/d3/conv2d_transpose_grad/Shape"
  input: "d2/Relu"
  attr {
    key: "T"
    value {
      type: DT_FLOAT
    }
  }
  attr {
    key: "data_format"
    value {
      s: "NHWC"
    }
  }
  attr {
    key: "dilations"
    value {
      list {
        i: 1
        i: 1
        i: 1
        i: 1
      }
    }
  }
  attr {
    key: "padding"
    value {
      s: "VALID"
    }
  }
  attr {
    key: "strides"
    value {
      list {
        i: 1
        i: 2
        i: 2
        i: 1
      }
    }
  }
  attr {
    key: "use_cudnn_on_gpu"
    value {
      b: true
    }
  }
}
node {
  name: "gradients/d3/conv2d_transpose_grad/Conv2D"
  op: "Conv2D"
  input: "gradients/d3/BiasAdd_grad/tuple/control_dependency"
  input: "d3/weights/read"
  attr {
    key: "T"
    value {
      type: DT_FLOAT
    }
  }
  attr {
    key: "data_format"
    value {
      s: "NHWC"
    }
  }
  attr {
    key: "dilations"
    value {
      list {
        i: 1
        i: 1
        i: 1
        i: 1
      }
    }
  }
  attr {
    key: "padding"
    value {
      s: "VALID"
    }
  }
  attr {
    key: "strides"
    value {
      list {
        i: 1
        i: 2
        i: 2
        i: 1
      }
    }
  }
  attr {
    key: "use_cudnn_on_gpu"
    value {
      b: true
    }
  }
}
node {
  name: "gradients/d3/conv2d_transpose_grad/tuple/group_deps"
  op: "NoOp"
  input: "^gradients/d3/conv2d_transpose_grad/Conv2D"
  input: "^gradients/d3/conv2d_transpose_grad/Conv2DBackpropFilter"
}
node {
  name: "gradients/d3/conv2d_transpose_grad/tuple/control_dependency"
  op: "Identity"
  input: "gradients/d3/conv2d_transpose_grad/Conv2DBackpropFilter"
  input: "^gradients/d3/conv2d_transpose_grad/tuple/group_deps"
  attr {
    key: "T"
    value {
      type: DT_FLOAT
    }
  }
  attr {
    key: "_class"
    value {
      list {
        s: "loc:@gradients/d3/conv2d_transpose_grad/Conv2DBackpropFilter"
      }
    }
  }
}
node {
  name: "gradients/d3/conv2d_transpose_grad/tuple/control_dependency_1"
  op: "Identity"
  input: "gradients/d3/conv2d_transpose_grad/Conv2D"
  input: "^gradients/d3/conv2d_transpose_grad/tuple/group_deps"
  attr {
    key: "T"
    value {
      type: DT_FLOAT
    }
  }
  attr {
    key: "_class"
    value {
      list {
        s: "loc:@gradients/d3/conv2d_transpose_grad/Conv2D"
      }
    }
  }
}
node {
  name: "gradients/d2/Relu_grad/ReluGrad"
  op: "ReluGrad"
  input: "gradients/d3/conv2d_transpose_grad/tuple/control_dependency_1"
  input: "d2/Relu"
  attr {
    key: "T"
    value {
      type: DT_FLOAT
    }
  }
}
node {
  name: "gradients/d2/BiasAdd_grad/BiasAddGrad"
  op: "BiasAddGrad"
  input: "gradients/d2/Relu_grad/ReluGrad"
  attr {
    key: "T"
    value {
      type: DT_FLOAT
    }
  }
  attr {
    key: "data_format"
    value {
      s: "NHWC"
    }
  }
}
node {
  name: "gradients/d2/BiasAdd_grad/tuple/group_deps"
  op: "NoOp"
  input: "^gradients/d2/BiasAdd_grad/BiasAddGrad"
  input: "^gradients/d2/Relu_grad/ReluGrad"
}
node {
  name: "gradients/d2/BiasAdd_grad/tuple/control_dependency"
  op: "Identity"
  input: "gradients/d2/Relu_grad/ReluGrad"
  input: "^gradients/d2/BiasAdd_grad/tuple/group_deps"
  attr {
    key: "T"
    value {
      type: DT_FLOAT
    }
  }
  attr {
    key: "_class"
    value {
      list {
        s: "loc:@gradients/d2/Relu_grad/ReluGrad"
      }
    }
  }
}
node {
  name: "gradients/d2/BiasAdd_grad/tuple/control_dependency_1"
  op: "Identity"
  input: "gradients/d2/BiasAdd_grad/BiasAddGrad"
  input: "^gradients/d2/BiasAdd_grad/tuple/group_deps"
  attr {
    key: "T"
    value {
      type: DT_FLOAT
    }
  }
  attr {
    key: "_class"
    value {
      list {
        s: "loc:@gradients/d2/BiasAdd_grad/BiasAddGrad"
      }
    }
  }
}
node {
  name: "gradients/d2/conv2d_transpose_grad/Shape"
  op: "Const"
  attr {
    key: "dtype"
    value {
      type: DT_INT32
    }
  }
  attr {
    key: "value"
    value {
      tensor {
        dtype: DT_INT32
        tensor_shape {
          dim {
            size: 4
          }
        }
        tensor_content: "\003\000\000\000\003\000\000\000 \000\000\000@\000\000\000"
      }
    }
  }
}
node {
  name: "gradients/d2/conv2d_transpose_grad/Conv2DBackpropFilter"
  op: "Conv2DBackpropFilter"
  input: "gradients/d2/BiasAdd_grad/tuple/control_dependency"
  input: "gradients/d2/conv2d_transpose_grad/Shape"
  input: "d1/Relu"
  attr {
    key: "T"
    value {
      type: DT_FLOAT
    }
  }
  attr {
    key: "data_format"
    value {
      s: "NHWC"
    }
  }
  attr {
    key: "dilations"
    value {
      list {
        i: 1
        i: 1
        i: 1
        i: 1
      }
    }
  }
  attr {
    key: "padding"
    value {
      s: "VALID"
    }
  }
  attr {
    key: "strides"
    value {
      list {
        i: 1
        i: 2
        i: 2
        i: 1
      }
    }
  }
  attr {
    key: "use_cudnn_on_gpu"
    value {
      b: true
    }
  }
}
node {
  name: "gradients/d2/conv2d_transpose_grad/Conv2D"
  op: "Conv2D"
  input: "gradients/d2/BiasAdd_grad/tuple/control_dependency"
  input: "d2/weights/read"
  attr {
    key: "T"
    value {
      type: DT_FLOAT
    }
  }
  attr {
    key: "data_format"
    value {
      s: "NHWC"
    }
  }
  attr {
    key: "dilations"
    value {
      list {
        i: 1
        i: 1
        i: 1
        i: 1
      }
    }
  }
  attr {
    key: "padding"
    value {
      s: "VALID"
    }
  }
  attr {
    key: "strides"
    value {
      list {
        i: 1
        i: 2
        i: 2
        i: 1
      }
    }
  }
  attr {
    key: "use_cudnn_on_gpu"
    value {
      b: true
    }
  }
}
node {
  name: "gradients/d2/conv2d_transpose_grad/tuple/group_deps"
  op: "NoOp"
  input: "^gradients/d2/conv2d_transpose_grad/Conv2D"
  input: "^gradients/d2/conv2d_transpose_grad/Conv2DBackpropFilter"
}
node {
  name: "gradients/d2/conv2d_transpose_grad/tuple/control_dependency"
  op: "Identity"
  input: "gradients/d2/conv2d_transpose_grad/Conv2DBackpropFilter"
  input: "^gradients/d2/conv2d_transpose_grad/tuple/group_deps"
  attr {
    key: "T"
    value {
      type: DT_FLOAT
    }
  }
  attr {
    key: "_class"
    value {
      list {
        s: "loc:@gradients/d2/conv2d_transpose_grad/Conv2DBackpropFilter"
      }
    }
  }
}
node {
  name: "gradients/d2/conv2d_transpose_grad/tuple/control_dependency_1"
  op: "Identity"
  input: "gradients/d2/conv2d_transpose_grad/Conv2D"
  input: "^gradients/d2/conv2d_transpose_grad/tuple/group_deps"
  attr {
    key: "T"
    value {
      type: DT_FLOAT
    }
  }
  attr {
    key: "_class"
    value {
      list {
        s: "loc:@gradients/d2/conv2d_transpose_grad/Conv2D"
      }
    }
  }
}
node {
  name: "gradients/d1/Relu_grad/ReluGrad"
  op: "ReluGrad"
  input: "gradients/d2/conv2d_transpose_grad/tuple/control_dependency_1"
  input: "d1/Relu"
  attr {
    key: "T"
    value {
      type: DT_FLOAT
    }
  }
}
node {
  name: "gradients/d1/BiasAdd_grad/BiasAddGrad"
  op: "BiasAddGrad"
  input: "gradients/d1/Relu_grad/ReluGrad"
  attr {
    key: "T"
    value {
      type: DT_FLOAT
    }
  }
  attr {
    key: "data_format"
    value {
      s: "NHWC"
    }
  }
}
node {
  name: "gradients/d1/BiasAdd_grad/tuple/group_deps"
  op: "NoOp"
  input: "^gradients/d1/BiasAdd_grad/BiasAddGrad"
  input: "^gradients/d1/Relu_grad/ReluGrad"
}
node {
  name: "gradients/d1/BiasAdd_grad/tuple/control_dependency"
  op: "Identity"
  input: "gradients/d1/Relu_grad/ReluGrad"
  input: "^gradients/d1/BiasAdd_grad/tuple/group_deps"
  attr {
    key: "T"
    value {
      type: DT_FLOAT
    }
  }
  attr {
    key: "_class"
    value {
      list {
        s: "loc:@gradients/d1/Relu_grad/ReluGrad"
      }
    }
  }
}
node {
  name: "gradients/d1/BiasAdd_grad/tuple/control_dependency_1"
  op: "Identity"
  input: "gradients/d1/BiasAdd_grad/BiasAddGrad"
  input: "^gradients/d1/BiasAdd_grad/tuple/group_deps"
  attr {
    key: "T"
    value {
      type: DT_FLOAT
    }
  }
  attr {
    key: "_class"
    value {
      list {
        s: "loc:@gradients/d1/BiasAdd_grad/BiasAddGrad"
      }
    }
  }
}
node {
  name: "gradients/d1/conv2d_transpose_grad/Shape"
  op: "Const"
  attr {
    key: "dtype"
    value {
      type: DT_INT32
    }
  }
  attr {
    key: "value"
    value {
      tensor {
        dtype: DT_INT32
        tensor_shape {
          dim {
            size: 4
          }
        }
        tensor_content: "\003\000\000\000\003\000\000\000@\000\000\000\200\000\000\000"
      }
    }
  }
}
node {
  name: "gradients/d1/conv2d_transpose_grad/Conv2DBackpropFilter"
  op: "Conv2DBackpropFilter"
  input: "gradients/d1/BiasAdd_grad/tuple/control_dependency"
  input: "gradients/d1/conv2d_transpose_grad/Shape"
  input: "e5/Relu"
  attr {
    key: "T"
    value {
      type: DT_FLOAT
    }
  }
  attr {
    key: "data_format"
    value {
      s: "NHWC"
    }
  }
  attr {
    key: "dilations"
    value {
      list {
        i: 1
        i: 1
        i: 1
        i: 1
      }
    }
  }
  attr {
    key: "padding"
    value {
      s: "VALID"
    }
  }
  attr {
    key: "strides"
    value {
      list {
        i: 1
        i: 2
        i: 2
        i: 1
      }
    }
  }
  attr {
    key: "use_cudnn_on_gpu"
    value {
      b: true
    }
  }
}
node {
  name: "gradients/d1/conv2d_transpose_grad/Conv2D"
  op: "Conv2D"
  input: "gradients/d1/BiasAdd_grad/tuple/control_dependency"
  input: "d1/weights/read"
  attr {
    key: "T"
    value {
      type: DT_FLOAT
    }
  }
  attr {
    key: "data_format"
    value {
      s: "NHWC"
    }
  }
  attr {
    key: "dilations"
    value {
      list {
        i: 1
        i: 1
        i: 1
        i: 1
      }
    }
  }
  attr {
    key: "padding"
    value {
      s: "VALID"
    }
  }
  attr {
    key: "strides"
    value {
      list {
        i: 1
        i: 2
        i: 2
        i: 1
      }
    }
  }
  attr {
    key: "use_cudnn_on_gpu"
    value {
      b: true
    }
  }
}
node {
  name: "gradients/d1/conv2d_transpose_grad/tuple/group_deps"
  op: "NoOp"
  input: "^gradients/d1/conv2d_transpose_grad/Conv2D"
  input: "^gradients/d1/conv2d_transpose_grad/Conv2DBackpropFilter"
}
node {
  name: "gradients/d1/conv2d_transpose_grad/tuple/control_dependency"
  op: "Identity"
  input: "gradients/d1/conv2d_transpose_grad/Conv2DBackpropFilter"
  input: "^gradients/d1/conv2d_transpose_grad/tuple/group_deps"
  attr {
    key: "T"
    value {
      type: DT_FLOAT
    }
  }
  attr {
    key: "_class"
    value {
      list {
        s: "loc:@gradients/d1/conv2d_transpose_grad/Conv2DBackpropFilter"
      }
    }
  }
}
node {
  name: "gradients/d1/conv2d_transpose_grad/tuple/control_dependency_1"
  op: "Identity"
  input: "gradients/d1/conv2d_transpose_grad/Conv2D"
  input: "^gradients/d1/conv2d_transpose_grad/tuple/group_deps"
  attr {
    key: "T"
    value {
      type: DT_FLOAT
    }
  }
  attr {
    key: "_class"
    value {
      list {
        s: "loc:@gradients/d1/conv2d_transpose_grad/Conv2D"
      }
    }
  }
}
node {
  name: "gradients/e5/Relu_grad/ReluGrad"
  op: "ReluGrad"
  input: "gradients/d1/conv2d_transpose_grad/tuple/control_dependency_1"
  input: "e5/Relu"
  attr {
    key: "T"
    value {
      type: DT_FLOAT
    }
  }
}
node {
  name: "gradients/e5/BiasAdd_grad/BiasAddGrad"
  op: "BiasAddGrad"
  input: "gradients/e5/Relu_grad/ReluGrad"
  attr {
    key: "T"
    value {
      type: DT_FLOAT
    }
  }
  attr {
    key: "data_format"
    value {
      s: "NHWC"
    }
  }
}
node {
  name: "gradients/e5/BiasAdd_grad/tuple/group_deps"
  op: "NoOp"
  input: "^gradients/e5/BiasAdd_grad/BiasAddGrad"
  input: "^gradients/e5/Relu_grad/ReluGrad"
}
node {
  name: "gradients/e5/BiasAdd_grad/tuple/control_dependency"
  op: "Identity"
  input: "gradients/e5/Relu_grad/ReluGrad"
  input: "^gradients/e5/BiasAdd_grad/tuple/group_deps"
  attr {
    key: "T"
    value {
      type: DT_FLOAT
    }
  }
  attr {
    key: "_class"
    value {
      list {
        s: "loc:@gradients/e5/Relu_grad/ReluGrad"
      }
    }
  }
}
node {
  name: "gradients/e5/BiasAdd_grad/tuple/control_dependency_1"
  op: "Identity"
  input: "gradients/e5/BiasAdd_grad/BiasAddGrad"
  input: "^gradients/e5/BiasAdd_grad/tuple/group_deps"
  attr {
    key: "T"
    value {
      type: DT_FLOAT
    }
  }
  attr {
    key: "_class"
    value {
      list {
        s: "loc:@gradients/e5/BiasAdd_grad/BiasAddGrad"
      }
    }
  }
}
node {
  name: "gradients/e5/Conv2D_grad/ShapeN"
  op: "ShapeN"
  input: "e4/Relu"
  input: "e5/weights/read"
  attr {
    key: "N"
    value {
      i: 2
    }
  }
  attr {
    key: "T"
    value {
      type: DT_FLOAT
    }
  }
  attr {
    key: "out_type"
    value {
      type: DT_INT32
    }
  }
}
node {
  name: "gradients/e5/Conv2D_grad/Conv2DBackpropInput"
  op: "Conv2DBackpropInput"
  input: "gradients/e5/Conv2D_grad/ShapeN"
  input: "e5/weights/read"
  input: "gradients/e5/BiasAdd_grad/tuple/control_dependency"
  attr {
    key: "T"
    value {
      type: DT_FLOAT
    }
  }
  attr {
    key: "data_format"
    value {
      s: "NHWC"
    }
  }
  attr {
    key: "dilations"
    value {
      list {
        i: 1
        i: 1
        i: 1
        i: 1
      }
    }
  }
  attr {
    key: "padding"
    value {
      s: "VALID"
    }
  }
  attr {
    key: "strides"
    value {
      list {
        i: 1
        i: 2
        i: 2
        i: 1
      }
    }
  }
  attr {
    key: "use_cudnn_on_gpu"
    value {
      b: true
    }
  }
}
node {
  name: "gradients/e5/Conv2D_grad/Conv2DBackpropFilter"
  op: "Conv2DBackpropFilter"
  input: "e4/Relu"
  input: "gradients/e5/Conv2D_grad/ShapeN:1"
  input: "gradients/e5/BiasAdd_grad/tuple/control_dependency"
  attr {
    key: "T"
    value {
      type: DT_FLOAT
    }
  }
  attr {
    key: "data_format"
    value {
      s: "NHWC"
    }
  }
  attr {
    key: "dilations"
    value {
      list {
        i: 1
        i: 1
        i: 1
        i: 1
      }
    }
  }
  attr {
    key: "padding"
    value {
      s: "VALID"
    }
  }
  attr {
    key: "strides"
    value {
      list {
        i: 1
        i: 2
        i: 2
        i: 1
      }
    }
  }
  attr {
    key: "use_cudnn_on_gpu"
    value {
      b: true
    }
  }
}
node {
  name: "gradients/e5/Conv2D_grad/tuple/group_deps"
  op: "NoOp"
  input: "^gradients/e5/Conv2D_grad/Conv2DBackpropFilter"
  input: "^gradients/e5/Conv2D_grad/Conv2DBackpropInput"
}
node {
  name: "gradients/e5/Conv2D_grad/tuple/control_dependency"
  op: "Identity"
  input: "gradients/e5/Conv2D_grad/Conv2DBackpropInput"
  input: "^gradients/e5/Conv2D_grad/tuple/group_deps"
  attr {
    key: "T"
    value {
      type: DT_FLOAT
    }
  }
  attr {
    key: "_class"
    value {
      list {
        s: "loc:@gradients/e5/Conv2D_grad/Conv2DBackpropInput"
      }
    }
  }
}
node {
  name: "gradients/e5/Conv2D_grad/tuple/control_dependency_1"
  op: "Identity"
  input: "gradients/e5/Conv2D_grad/Conv2DBackpropFilter"
  input: "^gradients/e5/Conv2D_grad/tuple/group_deps"
  attr {
    key: "T"
    value {
      type: DT_FLOAT
    }
  }
  attr {
    key: "_class"
    value {
      list {
        s: "loc:@gradients/e5/Conv2D_grad/Conv2DBackpropFilter"
      }
    }
  }
}
node {
  name: "gradients/e4/Relu_grad/ReluGrad"
  op: "ReluGrad"
  input: "gradients/e5/Conv2D_grad/tuple/control_dependency"
  input: "e4/Relu"
  attr {
    key: "T"
    value {
      type: DT_FLOAT
    }
  }
}
node {
  name: "gradients/e4/BiasAdd_grad/BiasAddGrad"
  op: "BiasAddGrad"
  input: "gradients/e4/Relu_grad/ReluGrad"
  attr {
    key: "T"
    value {
      type: DT_FLOAT
    }
  }
  attr {
    key: "data_format"
    value {
      s: "NHWC"
    }
  }
}
node {
  name: "gradients/e4/BiasAdd_grad/tuple/group_deps"
  op: "NoOp"
  input: "^gradients/e4/BiasAdd_grad/BiasAddGrad"
  input: "^gradients/e4/Relu_grad/ReluGrad"
}
node {
  name: "gradients/e4/BiasAdd_grad/tuple/control_dependency"
  op: "Identity"
  input: "gradients/e4/Relu_grad/ReluGrad"
  input: "^gradients/e4/BiasAdd_grad/tuple/group_deps"
  attr {
    key: "T"
    value {
      type: DT_FLOAT
    }
  }
  attr {
    key: "_class"
    value {
      list {
        s: "loc:@gradients/e4/Relu_grad/ReluGrad"
      }
    }
  }
}
node {
  name: "gradients/e4/BiasAdd_grad/tuple/control_dependency_1"
  op: "Identity"
  input: "gradients/e4/BiasAdd_grad/BiasAddGrad"
  input: "^gradients/e4/BiasAdd_grad/tuple/group_deps"
  attr {
    key: "T"
    value {
      type: DT_FLOAT
    }
  }
  attr {
    key: "_class"
    value {
      list {
        s: "loc:@gradients/e4/BiasAdd_grad/BiasAddGrad"
      }
    }
  }
}
node {
  name: "gradients/e4/Conv2D_grad/ShapeN"
  op: "ShapeN"
  input: "e3/Relu"
  input: "e4/weights/read"
  attr {
    key: "N"
    value {
      i: 2
    }
  }
  attr {
    key: "T"
    value {
      type: DT_FLOAT
    }
  }
  attr {
    key: "out_type"
    value {
      type: DT_INT32
    }
  }
}
node {
  name: "gradients/e4/Conv2D_grad/Conv2DBackpropInput"
  op: "Conv2DBackpropInput"
  input: "gradients/e4/Conv2D_grad/ShapeN"
  input: "e4/weights/read"
  input: "gradients/e4/BiasAdd_grad/tuple/control_dependency"
  attr {
    key: "T"
    value {
      type: DT_FLOAT
    }
  }
  attr {
    key: "data_format"
    value {
      s: "NHWC"
    }
  }
  attr {
    key: "dilations"
    value {
      list {
        i: 1
        i: 1
        i: 1
        i: 1
      }
    }
  }
  attr {
    key: "padding"
    value {
      s: "VALID"
    }
  }
  attr {
    key: "strides"
    value {
      list {
        i: 1
        i: 2
        i: 2
        i: 1
      }
    }
  }
  attr {
    key: "use_cudnn_on_gpu"
    value {
      b: true
    }
  }
}
node {
  name: "gradients/e4/Conv2D_grad/Conv2DBackpropFilter"
  op: "Conv2DBackpropFilter"
  input: "e3/Relu"
  input: "gradients/e4/Conv2D_grad/ShapeN:1"
  input: "gradients/e4/BiasAdd_grad/tuple/control_dependency"
  attr {
    key: "T"
    value {
      type: DT_FLOAT
    }
  }
  attr {
    key: "data_format"
    value {
      s: "NHWC"
    }
  }
  attr {
    key: "dilations"
    value {
      list {
        i: 1
        i: 1
        i: 1
        i: 1
      }
    }
  }
  attr {
    key: "padding"
    value {
      s: "VALID"
    }
  }
  attr {
    key: "strides"
    value {
      list {
        i: 1
        i: 2
        i: 2
        i: 1
      }
    }
  }
  attr {
    key: "use_cudnn_on_gpu"
    value {
      b: true
    }
  }
}
node {
  name: "gradients/e4/Conv2D_grad/tuple/group_deps"
  op: "NoOp"
  input: "^gradients/e4/Conv2D_grad/Conv2DBackpropFilter"
  input: "^gradients/e4/Conv2D_grad/Conv2DBackpropInput"
}
node {
  name: "gradients/e4/Conv2D_grad/tuple/control_dependency"
  op: "Identity"
  input: "gradients/e4/Conv2D_grad/Conv2DBackpropInput"
  input: "^gradients/e4/Conv2D_grad/tuple/group_deps"
  attr {
    key: "T"
    value {
      type: DT_FLOAT
    }
  }
  attr {
    key: "_class"
    value {
      list {
        s: "loc:@gradients/e4/Conv2D_grad/Conv2DBackpropInput"
      }
    }
  }
}
node {
  name: "gradients/e4/Conv2D_grad/tuple/control_dependency_1"
  op: "Identity"
  input: "gradients/e4/Conv2D_grad/Conv2DBackpropFilter"
  input: "^gradients/e4/Conv2D_grad/tuple/group_deps"
  attr {
    key: "T"
    value {
      type: DT_FLOAT
    }
  }
  attr {
    key: "_class"
    value {
      list {
        s: "loc:@gradients/e4/Conv2D_grad/Conv2DBackpropFilter"
      }
    }
  }
}
node {
  name: "gradients/e3/Relu_grad/ReluGrad"
  op: "ReluGrad"
  input: "gradients/e4/Conv2D_grad/tuple/control_dependency"
  input: "e3/Relu"
  attr {
    key: "T"
    value {
      type: DT_FLOAT
    }
  }
}
node {
  name: "gradients/e3/BiasAdd_grad/BiasAddGrad"
  op: "BiasAddGrad"
  input: "gradients/e3/Relu_grad/ReluGrad"
  attr {
    key: "T"
    value {
      type: DT_FLOAT
    }
  }
  attr {
    key: "data_format"
    value {
      s: "NHWC"
    }
  }
}
node {
  name: "gradients/e3/BiasAdd_grad/tuple/group_deps"
  op: "NoOp"
  input: "^gradients/e3/BiasAdd_grad/BiasAddGrad"
  input: "^gradients/e3/Relu_grad/ReluGrad"
}
node {
  name: "gradients/e3/BiasAdd_grad/tuple/control_dependency"
  op: "Identity"
  input: "gradients/e3/Relu_grad/ReluGrad"
  input: "^gradients/e3/BiasAdd_grad/tuple/group_deps"
  attr {
    key: "T"
    value {
      type: DT_FLOAT
    }
  }
  attr {
    key: "_class"
    value {
      list {
        s: "loc:@gradients/e3/Relu_grad/ReluGrad"
      }
    }
  }
}
node {
  name: "gradients/e3/BiasAdd_grad/tuple/control_dependency_1"
  op: "Identity"
  input: "gradients/e3/BiasAdd_grad/BiasAddGrad"
  input: "^gradients/e3/BiasAdd_grad/tuple/group_deps"
  attr {
    key: "T"
    value {
      type: DT_FLOAT
    }
  }
  attr {
    key: "_class"
    value {
      list {
        s: "loc:@gradients/e3/BiasAdd_grad/BiasAddGrad"
      }
    }
  }
}
node {
  name: "gradients/e3/Conv2D_grad/ShapeN"
  op: "ShapeN"
  input: "e2/Relu"
  input: "e3/weights/read"
  attr {
    key: "N"
    value {
      i: 2
    }
  }
  attr {
    key: "T"
    value {
      type: DT_FLOAT
    }
  }
  attr {
    key: "out_type"
    value {
      type: DT_INT32
    }
  }
}
node {
  name: "gradients/e3/Conv2D_grad/Conv2DBackpropInput"
  op: "Conv2DBackpropInput"
  input: "gradients/e3/Conv2D_grad/ShapeN"
  input: "e3/weights/read"
  input: "gradients/e3/BiasAdd_grad/tuple/control_dependency"
  attr {
    key: "T"
    value {
      type: DT_FLOAT
    }
  }
  attr {
    key: "data_format"
    value {
      s: "NHWC"
    }
  }
  attr {
    key: "dilations"
    value {
      list {
        i: 1
        i: 1
        i: 1
        i: 1
      }
    }
  }
  attr {
    key: "padding"
    value {
      s: "VALID"
    }
  }
  attr {
    key: "strides"
    value {
      list {
        i: 1
        i: 2
        i: 2
        i: 1
      }
    }
  }
  attr {
    key: "use_cudnn_on_gpu"
    value {
      b: true
    }
  }
}
node {
  name: "gradients/e3/Conv2D_grad/Conv2DBackpropFilter"
  op: "Conv2DBackpropFilter"
  input: "e2/Relu"
  input: "gradients/e3/Conv2D_grad/ShapeN:1"
  input: "gradients/e3/BiasAdd_grad/tuple/control_dependency"
  attr {
    key: "T"
    value {
      type: DT_FLOAT
    }
  }
  attr {
    key: "data_format"
    value {
      s: "NHWC"
    }
  }
  attr {
    key: "dilations"
    value {
      list {
        i: 1
        i: 1
        i: 1
        i: 1
      }
    }
  }
  attr {
    key: "padding"
    value {
      s: "VALID"
    }
  }
  attr {
    key: "strides"
    value {
      list {
        i: 1
        i: 2
        i: 2
        i: 1
      }
    }
  }
  attr {
    key: "use_cudnn_on_gpu"
    value {
      b: true
    }
  }
}
node {
  name: "gradients/e3/Conv2D_grad/tuple/group_deps"
  op: "NoOp"
  input: "^gradients/e3/Conv2D_grad/Conv2DBackpropFilter"
  input: "^gradients/e3/Conv2D_grad/Conv2DBackpropInput"
}
node {
  name: "gradients/e3/Conv2D_grad/tuple/control_dependency"
  op: "Identity"
  input: "gradients/e3/Conv2D_grad/Conv2DBackpropInput"
  input: "^gradients/e3/Conv2D_grad/tuple/group_deps"
  attr {
    key: "T"
    value {
      type: DT_FLOAT
    }
  }
  attr {
    key: "_class"
    value {
      list {
        s: "loc:@gradients/e3/Conv2D_grad/Conv2DBackpropInput"
      }
    }
  }
}
node {
  name: "gradients/e3/Conv2D_grad/tuple/control_dependency_1"
  op: "Identity"
  input: "gradients/e3/Conv2D_grad/Conv2DBackpropFilter"
  input: "^gradients/e3/Conv2D_grad/tuple/group_deps"
  attr {
    key: "T"
    value {
      type: DT_FLOAT
    }
  }
  attr {
    key: "_class"
    value {
      list {
        s: "loc:@gradients/e3/Conv2D_grad/Conv2DBackpropFilter"
      }
    }
  }
}
node {
  name: "gradients/e2/Relu_grad/ReluGrad"
  op: "ReluGrad"
  input: "gradients/e3/Conv2D_grad/tuple/control_dependency"
  input: "e2/Relu"
  attr {
    key: "T"
    value {
      type: DT_FLOAT
    }
  }
}
node {
  name: "gradients/e2/BiasAdd_grad/BiasAddGrad"
  op: "BiasAddGrad"
  input: "gradients/e2/Relu_grad/ReluGrad"
  attr {
    key: "T"
    value {
      type: DT_FLOAT
    }
  }
  attr {
    key: "data_format"
    value {
      s: "NHWC"
    }
  }
}
node {
  name: "gradients/e2/BiasAdd_grad/tuple/group_deps"
  op: "NoOp"
  input: "^gradients/e2/BiasAdd_grad/BiasAddGrad"
  input: "^gradients/e2/Relu_grad/ReluGrad"
}
node {
  name: "gradients/e2/BiasAdd_grad/tuple/control_dependency"
  op: "Identity"
  input: "gradients/e2/Relu_grad/ReluGrad"
  input: "^gradients/e2/BiasAdd_grad/tuple/group_deps"
  attr {
    key: "T"
    value {
      type: DT_FLOAT
    }
  }
  attr {
    key: "_class"
    value {
      list {
        s: "loc:@gradients/e2/Relu_grad/ReluGrad"
      }
    }
  }
}
node {
  name: "gradients/e2/BiasAdd_grad/tuple/control_dependency_1"
  op: "Identity"
  input: "gradients/e2/BiasAdd_grad/BiasAddGrad"
  input: "^gradients/e2/BiasAdd_grad/tuple/group_deps"
  attr {
    key: "T"
    value {
      type: DT_FLOAT
    }
  }
  attr {
    key: "_class"
    value {
      list {
        s: "loc:@gradients/e2/BiasAdd_grad/BiasAddGrad"
      }
    }
  }
}
node {
  name: "gradients/e2/Conv2D_grad/ShapeN"
  op: "ShapeN"
  input: "e1/Relu"
  input: "e2/weights/read"
  attr {
    key: "N"
    value {
      i: 2
    }
  }
  attr {
    key: "T"
    value {
      type: DT_FLOAT
    }
  }
  attr {
    key: "out_type"
    value {
      type: DT_INT32
    }
  }
}
node {
  name: "gradients/e2/Conv2D_grad/Conv2DBackpropInput"
  op: "Conv2DBackpropInput"
  input: "gradients/e2/Conv2D_grad/ShapeN"
  input: "e2/weights/read"
  input: "gradients/e2/BiasAdd_grad/tuple/control_dependency"
  attr {
    key: "T"
    value {
      type: DT_FLOAT
    }
  }
  attr {
    key: "data_format"
    value {
      s: "NHWC"
    }
  }
  attr {
    key: "dilations"
    value {
      list {
        i: 1
        i: 1
        i: 1
        i: 1
      }
    }
  }
  attr {
    key: "padding"
    value {
      s: "VALID"
    }
  }
  attr {
    key: "strides"
    value {
      list {
        i: 1
        i: 2
        i: 2
        i: 1
      }
    }
  }
  attr {
    key: "use_cudnn_on_gpu"
    value {
      b: true
    }
  }
}
node {
  name: "gradients/e2/Conv2D_grad/Conv2DBackpropFilter"
  op: "Conv2DBackpropFilter"
  input: "e1/Relu"
  input: "gradients/e2/Conv2D_grad/ShapeN:1"
  input: "gradients/e2/BiasAdd_grad/tuple/control_dependency"
  attr {
    key: "T"
    value {
      type: DT_FLOAT
    }
  }
  attr {
    key: "data_format"
    value {
      s: "NHWC"
    }
  }
  attr {
    key: "dilations"
    value {
      list {
        i: 1
        i: 1
        i: 1
        i: 1
      }
    }
  }
  attr {
    key: "padding"
    value {
      s: "VALID"
    }
  }
  attr {
    key: "strides"
    value {
      list {
        i: 1
        i: 2
        i: 2
        i: 1
      }
    }
  }
  attr {
    key: "use_cudnn_on_gpu"
    value {
      b: true
    }
  }
}
node {
  name: "gradients/e2/Conv2D_grad/tuple/group_deps"
  op: "NoOp"
  input: "^gradients/e2/Conv2D_grad/Conv2DBackpropFilter"
  input: "^gradients/e2/Conv2D_grad/Conv2DBackpropInput"
}
node {
  name: "gradients/e2/Conv2D_grad/tuple/control_dependency"
  op: "Identity"
  input: "gradients/e2/Conv2D_grad/Conv2DBackpropInput"
  input: "^gradients/e2/Conv2D_grad/tuple/group_deps"
  attr {
    key: "T"
    value {
      type: DT_FLOAT
    }
  }
  attr {
    key: "_class"
    value {
      list {
        s: "loc:@gradients/e2/Conv2D_grad/Conv2DBackpropInput"
      }
    }
  }
}
node {
  name: "gradients/e2/Conv2D_grad/tuple/control_dependency_1"
  op: "Identity"
  input: "gradients/e2/Conv2D_grad/Conv2DBackpropFilter"
  input: "^gradients/e2/Conv2D_grad/tuple/group_deps"
  attr {
    key: "T"
    value {
      type: DT_FLOAT
    }
  }
  attr {
    key: "_class"
    value {
      list {
        s: "loc:@gradients/e2/Conv2D_grad/Conv2DBackpropFilter"
      }
    }
  }
}
node {
  name: "gradients/e1/Relu_grad/ReluGrad"
  op: "ReluGrad"
  input: "gradients/e2/Conv2D_grad/tuple/control_dependency"
  input: "e1/Relu"
  attr {
    key: "T"
    value {
      type: DT_FLOAT
    }
  }
}
node {
  name: "gradients/e1/BiasAdd_grad/BiasAddGrad"
  op: "BiasAddGrad"
  input: "gradients/e1/Relu_grad/ReluGrad"
  attr {
    key: "T"
    value {
      type: DT_FLOAT
    }
  }
  attr {
    key: "data_format"
    value {
      s: "NHWC"
    }
  }
}
node {
  name: "gradients/e1/BiasAdd_grad/tuple/group_deps"
  op: "NoOp"
  input: "^gradients/e1/BiasAdd_grad/BiasAddGrad"
  input: "^gradients/e1/Relu_grad/ReluGrad"
}
node {
  name: "gradients/e1/BiasAdd_grad/tuple/control_dependency"
  op: "Identity"
  input: "gradients/e1/Relu_grad/ReluGrad"
  input: "^gradients/e1/BiasAdd_grad/tuple/group_deps"
  attr {
    key: "T"
    value {
      type: DT_FLOAT
    }
  }
  attr {
    key: "_class"
    value {
      list {
        s: "loc:@gradients/e1/Relu_grad/ReluGrad"
      }
    }
  }
}
node {
  name: "gradients/e1/BiasAdd_grad/tuple/control_dependency_1"
  op: "Identity"
  input: "gradients/e1/BiasAdd_grad/BiasAddGrad"
  input: "^gradients/e1/BiasAdd_grad/tuple/group_deps"
  attr {
    key: "T"
    value {
      type: DT_FLOAT
    }
  }
  attr {
    key: "_class"
    value {
      list {
        s: "loc:@gradients/e1/BiasAdd_grad/BiasAddGrad"
      }
    }
  }
}
node {
  name: "gradients/e1/Conv2D_grad/ShapeN"
  op: "ShapeN"
  input: "imgs"
  input: "e1/weights/read"
  attr {
    key: "N"
    value {
      i: 2
    }
  }
  attr {
    key: "T"
    value {
      type: DT_FLOAT
    }
  }
  attr {
    key: "out_type"
    value {
      type: DT_INT32
    }
  }
}
node {
  name: "gradients/e1/Conv2D_grad/Conv2DBackpropInput"
  op: "Conv2DBackpropInput"
  input: "gradients/e1/Conv2D_grad/ShapeN"
  input: "e1/weights/read"
  input: "gradients/e1/BiasAdd_grad/tuple/control_dependency"
  attr {
    key: "T"
    value {
      type: DT_FLOAT
    }
  }
  attr {
    key: "data_format"
    value {
      s: "NHWC"
    }
  }
  attr {
    key: "dilations"
    value {
      list {
        i: 1
        i: 1
        i: 1
        i: 1
      }
    }
  }
  attr {
    key: "padding"
    value {
      s: "VALID"
    }
  }
  attr {
    key: "strides"
    value {
      list {
        i: 1
        i: 2
        i: 2
        i: 1
      }
    }
  }
  attr {
    key: "use_cudnn_on_gpu"
    value {
      b: true
    }
  }
}
node {
  name: "gradients/e1/Conv2D_grad/Conv2DBackpropFilter"
  op: "Conv2DBackpropFilter"
  input: "imgs"
  input: "gradients/e1/Conv2D_grad/ShapeN:1"
  input: "gradients/e1/BiasAdd_grad/tuple/control_dependency"
  attr {
    key: "T"
    value {
      type: DT_FLOAT
    }
  }
  attr {
    key: "data_format"
    value {
      s: "NHWC"
    }
  }
  attr {
    key: "dilations"
    value {
      list {
        i: 1
        i: 1
        i: 1
        i: 1
      }
    }
  }
  attr {
    key: "padding"
    value {
      s: "VALID"
    }
  }
  attr {
    key: "strides"
    value {
      list {
        i: 1
        i: 2
        i: 2
        i: 1
      }
    }
  }
  attr {
    key: "use_cudnn_on_gpu"
    value {
      b: true
    }
  }
}
node {
  name: "gradients/e1/Conv2D_grad/tuple/group_deps"
  op: "NoOp"
  input: "^gradients/e1/Conv2D_grad/Conv2DBackpropFilter"
  input: "^gradients/e1/Conv2D_grad/Conv2DBackpropInput"
}
node {
  name: "gradients/e1/Conv2D_grad/tuple/control_dependency"
  op: "Identity"
  input: "gradients/e1/Conv2D_grad/Conv2DBackpropInput"
  input: "^gradients/e1/Conv2D_grad/tuple/group_deps"
  attr {
    key: "T"
    value {
      type: DT_FLOAT
    }
  }
  attr {
    key: "_class"
    value {
      list {
        s: "loc:@gradients/e1/Conv2D_grad/Conv2DBackpropInput"
      }
    }
  }
}
node {
  name: "gradients/e1/Conv2D_grad/tuple/control_dependency_1"
  op: "Identity"
  input: "gradients/e1/Conv2D_grad/Conv2DBackpropFilter"
  input: "^gradients/e1/Conv2D_grad/tuple/group_deps"
  attr {
    key: "T"
    value {
      type: DT_FLOAT
    }
  }
  attr {
    key: "_class"
    value {
      list {
        s: "loc:@gradients/e1/Conv2D_grad/Conv2DBackpropFilter"
      }
    }
  }
}
node {
  name: "beta1_power/initial_value"
  op: "Const"
  attr {
    key: "_class"
    value {
      list {
        s: "loc:@d1/biases"
      }
    }
  }
  attr {
    key: "dtype"
    value {
      type: DT_FLOAT
    }
  }
  attr {
    key: "value"
    value {
      tensor {
        dtype: DT_FLOAT
        tensor_shape {
        }
        float_val: 0.8999999761581421
      }
    }
  }
}
node {
  name: "beta1_power"
  op: "VariableV2"
  attr {
    key: "_class"
    value {
      list {
        s: "loc:@d1/biases"
      }
    }
  }
  attr {
    key: "container"
    value {
      s: ""
    }
  }
  attr {
    key: "dtype"
    value {
      type: DT_FLOAT
    }
  }
  attr {
    key: "shape"
    value {
      shape {
      }
    }
  }
  attr {
    key: "shared_name"
    value {
      s: ""
    }
  }
}
node {
  name: "beta1_power/Assign"
  op: "Assign"
  input: "beta1_power"
  input: "beta1_power/initial_value"
  attr {
    key: "T"
    value {
      type: DT_FLOAT
    }
  }
  attr {
    key: "_class"
    value {
      list {
        s: "loc:@d1/biases"
      }
    }
  }
  attr {
    key: "use_locking"
    value {
      b: true
    }
  }
  attr {
    key: "validate_shape"
    value {
      b: true
    }
  }
}
node {
  name: "beta1_power/read"
  op: "Identity"
  input: "beta1_power"
  attr {
    key: "T"
    value {
      type: DT_FLOAT
    }
  }
  attr {
    key: "_class"
    value {
      list {
        s: "loc:@d1/biases"
      }
    }
  }
}
node {
  name: "beta2_power/initial_value"
  op: "Const"
  attr {
    key: "_class"
    value {
      list {
        s: "loc:@d1/biases"
      }
    }
  }
  attr {
    key: "dtype"
    value {
      type: DT_FLOAT
    }
  }
  attr {
    key: "value"
    value {
      tensor {
        dtype: DT_FLOAT
        tensor_shape {
        }
        float_val: 0.9990000128746033
      }
    }
  }
}
node {
  name: "beta2_power"
  op: "VariableV2"
  attr {
    key: "_class"
    value {
      list {
        s: "loc:@d1/biases"
      }
    }
  }
  attr {
    key: "container"
    value {
      s: ""
    }
  }
  attr {
    key: "dtype"
    value {
      type: DT_FLOAT
    }
  }
  attr {
    key: "shape"
    value {
      shape {
      }
    }
  }
  attr {
    key: "shared_name"
    value {
      s: ""
    }
  }
}
node {
  name: "beta2_power/Assign"
  op: "Assign"
  input: "beta2_power"
  input: "beta2_power/initial_value"
  attr {
    key: "T"
    value {
      type: DT_FLOAT
    }
  }
  attr {
    key: "_class"
    value {
      list {
        s: "loc:@d1/biases"
      }
    }
  }
  attr {
    key: "use_locking"
    value {
      b: true
    }
  }
  attr {
    key: "validate_shape"
    value {
      b: true
    }
  }
}
node {
  name: "beta2_power/read"
  op: "Identity"
  input: "beta2_power"
  attr {
    key: "T"
    value {
      type: DT_FLOAT
    }
  }
  attr {
    key: "_class"
    value {
      list {
        s: "loc:@d1/biases"
      }
    }
  }
}
node {
  name: "e1/weights/Adam/Initializer/zeros"
  op: "Const"
  attr {
    key: "_class"
    value {
      list {
        s: "loc:@e1/weights"
      }
    }
  }
  attr {
    key: "dtype"
    value {
      type: DT_FLOAT
    }
  }
  attr {
    key: "value"
    value {
      tensor {
        dtype: DT_FLOAT
        tensor_shape {
          dim {
            size: 3
          }
          dim {
            size: 3
          }
          dim {
            size: 3
          }
          dim {
            size: 8
          }
        }
        float_val: 0.0
      }
    }
  }
}
node {
  name: "e1/weights/Adam"
  op: "VariableV2"
  attr {
    key: "_class"
    value {
      list {
        s: "loc:@e1/weights"
      }
    }
  }
  attr {
    key: "container"
    value {
      s: ""
    }
  }
  attr {
    key: "dtype"
    value {
      type: DT_FLOAT
    }
  }
  attr {
    key: "shape"
    value {
      shape {
        dim {
          size: 3
        }
        dim {
          size: 3
        }
        dim {
          size: 3
        }
        dim {
          size: 8
        }
      }
    }
  }
  attr {
    key: "shared_name"
    value {
      s: ""
    }
  }
}
node {
  name: "e1/weights/Adam/Assign"
  op: "Assign"
  input: "e1/weights/Adam"
  input: "e1/weights/Adam/Initializer/zeros"
  attr {
    key: "T"
    value {
      type: DT_FLOAT
    }
  }
  attr {
    key: "_class"
    value {
      list {
        s: "loc:@e1/weights"
      }
    }
  }
  attr {
    key: "use_locking"
    value {
      b: true
    }
  }
  attr {
    key: "validate_shape"
    value {
      b: true
    }
  }
}
node {
  name: "e1/weights/Adam/read"
  op: "Identity"
  input: "e1/weights/Adam"
  attr {
    key: "T"
    value {
      type: DT_FLOAT
    }
  }
  attr {
    key: "_class"
    value {
      list {
        s: "loc:@e1/weights"
      }
    }
  }
}
node {
  name: "e1/weights/Adam_1/Initializer/zeros"
  op: "Const"
  attr {
    key: "_class"
    value {
      list {
        s: "loc:@e1/weights"
      }
    }
  }
  attr {
    key: "dtype"
    value {
      type: DT_FLOAT
    }
  }
  attr {
    key: "value"
    value {
      tensor {
        dtype: DT_FLOAT
        tensor_shape {
          dim {
            size: 3
          }
          dim {
            size: 3
          }
          dim {
            size: 3
          }
          dim {
            size: 8
          }
        }
        float_val: 0.0
      }
    }
  }
}
node {
  name: "e1/weights/Adam_1"
  op: "VariableV2"
  attr {
    key: "_class"
    value {
      list {
        s: "loc:@e1/weights"
      }
    }
  }
  attr {
    key: "container"
    value {
      s: ""
    }
  }
  attr {
    key: "dtype"
    value {
      type: DT_FLOAT
    }
  }
  attr {
    key: "shape"
    value {
      shape {
        dim {
          size: 3
        }
        dim {
          size: 3
        }
        dim {
          size: 3
        }
        dim {
          size: 8
        }
      }
    }
  }
  attr {
    key: "shared_name"
    value {
      s: ""
    }
  }
}
node {
  name: "e1/weights/Adam_1/Assign"
  op: "Assign"
  input: "e1/weights/Adam_1"
  input: "e1/weights/Adam_1/Initializer/zeros"
  attr {
    key: "T"
    value {
      type: DT_FLOAT
    }
  }
  attr {
    key: "_class"
    value {
      list {
        s: "loc:@e1/weights"
      }
    }
  }
  attr {
    key: "use_locking"
    value {
      b: true
    }
  }
  attr {
    key: "validate_shape"
    value {
      b: true
    }
  }
}
node {
  name: "e1/weights/Adam_1/read"
  op: "Identity"
  input: "e1/weights/Adam_1"
  attr {
    key: "T"
    value {
      type: DT_FLOAT
    }
  }
  attr {
    key: "_class"
    value {
      list {
        s: "loc:@e1/weights"
      }
    }
  }
}
node {
  name: "e1/biases/Adam/Initializer/zeros"
  op: "Const"
  attr {
    key: "_class"
    value {
      list {
        s: "loc:@e1/biases"
      }
    }
  }
  attr {
    key: "dtype"
    value {
      type: DT_FLOAT
    }
  }
  attr {
    key: "value"
    value {
      tensor {
        dtype: DT_FLOAT
        tensor_shape {
          dim {
            size: 8
          }
        }
        float_val: 0.0
      }
    }
  }
}
node {
  name: "e1/biases/Adam"
  op: "VariableV2"
  attr {
    key: "_class"
    value {
      list {
        s: "loc:@e1/biases"
      }
    }
  }
  attr {
    key: "container"
    value {
      s: ""
    }
  }
  attr {
    key: "dtype"
    value {
      type: DT_FLOAT
    }
  }
  attr {
    key: "shape"
    value {
      shape {
        dim {
          size: 8
        }
      }
    }
  }
  attr {
    key: "shared_name"
    value {
      s: ""
    }
  }
}
node {
  name: "e1/biases/Adam/Assign"
  op: "Assign"
  input: "e1/biases/Adam"
  input: "e1/biases/Adam/Initializer/zeros"
  attr {
    key: "T"
    value {
      type: DT_FLOAT
    }
  }
  attr {
    key: "_class"
    value {
      list {
        s: "loc:@e1/biases"
      }
    }
  }
  attr {
    key: "use_locking"
    value {
      b: true
    }
  }
  attr {
    key: "validate_shape"
    value {
      b: true
    }
  }
}
node {
  name: "e1/biases/Adam/read"
  op: "Identity"
  input: "e1/biases/Adam"
  attr {
    key: "T"
    value {
      type: DT_FLOAT
    }
  }
  attr {
    key: "_class"
    value {
      list {
        s: "loc:@e1/biases"
      }
    }
  }
}
node {
  name: "e1/biases/Adam_1/Initializer/zeros"
  op: "Const"
  attr {
    key: "_class"
    value {
      list {
        s: "loc:@e1/biases"
      }
    }
  }
  attr {
    key: "dtype"
    value {
      type: DT_FLOAT
    }
  }
  attr {
    key: "value"
    value {
      tensor {
        dtype: DT_FLOAT
        tensor_shape {
          dim {
            size: 8
          }
        }
        float_val: 0.0
      }
    }
  }
}
node {
  name: "e1/biases/Adam_1"
  op: "VariableV2"
  attr {
    key: "_class"
    value {
      list {
        s: "loc:@e1/biases"
      }
    }
  }
  attr {
    key: "container"
    value {
      s: ""
    }
  }
  attr {
    key: "dtype"
    value {
      type: DT_FLOAT
    }
  }
  attr {
    key: "shape"
    value {
      shape {
        dim {
          size: 8
        }
      }
    }
  }
  attr {
    key: "shared_name"
    value {
      s: ""
    }
  }
}
node {
  name: "e1/biases/Adam_1/Assign"
  op: "Assign"
  input: "e1/biases/Adam_1"
  input: "e1/biases/Adam_1/Initializer/zeros"
  attr {
    key: "T"
    value {
      type: DT_FLOAT
    }
  }
  attr {
    key: "_class"
    value {
      list {
        s: "loc:@e1/biases"
      }
    }
  }
  attr {
    key: "use_locking"
    value {
      b: true
    }
  }
  attr {
    key: "validate_shape"
    value {
      b: true
    }
  }
}
node {
  name: "e1/biases/Adam_1/read"
  op: "Identity"
  input: "e1/biases/Adam_1"
  attr {
    key: "T"
    value {
      type: DT_FLOAT
    }
  }
  attr {
    key: "_class"
    value {
      list {
        s: "loc:@e1/biases"
      }
    }
  }
}
node {
  name: "e2/weights/Adam/Initializer/zeros/shape_as_tensor"
  op: "Const"
  attr {
    key: "_class"
    value {
      list {
        s: "loc:@e2/weights"
      }
    }
  }
  attr {
    key: "dtype"
    value {
      type: DT_INT32
    }
  }
  attr {
    key: "value"
    value {
      tensor {
        dtype: DT_INT32
        tensor_shape {
          dim {
            size: 4
          }
        }
        tensor_content: "\003\000\000\000\003\000\000\000\010\000\000\000\020\000\000\000"
      }
    }
  }
}
node {
  name: "e2/weights/Adam/Initializer/zeros/Const"
  op: "Const"
  attr {
    key: "_class"
…
        s: "loc:@e4/biases"
      }
    }
  }
  attr {
    key: "use_locking"
    value {
      b: false
    }
  }
  attr {
    key: "use_nesterov"
    value {
      b: false
    }
  }
}
node {
  name: "Adam/update_e5/weights/ApplyAdam"
  op: "ApplyAdam"
  input: "e5/weights"
  input: "e5/weights/Adam"
  input: "e5/weights/Adam_1"
  input: "beta1_power/read"
  input: "beta2_power/read"
  input: "Adam/learning_rate"
  input: "Adam/beta1"
  input: "Adam/beta2"
  input: "Adam/epsilon"
  input: "gradients/e5/Conv2D_grad/tuple/control_dependency_1"
  attr {
    key: "T"
    value {
      type: DT_FLOAT
    }
  }
  attr {
    key: "_class"
    value {
      list {
        s: "loc:@e5/weights"
      }
    }
  }
  attr {
    key: "use_locking"
    value {
      b: false
    }
  }
  attr {
    key: "use_nesterov"
    value {
      b: false
    }
  }
}
node {
  name: "Adam/update_e5/biases/ApplyAdam"
  op: "ApplyAdam"
  input: "e5/biases"
  input: "e5/biases/Adam"
  input: "e5/biases/Adam_1"
  input: "beta1_power/read"
  input: "beta2_power/read"
  input: "Adam/learning_rate"
  input: "Adam/beta1"
  input: "Adam/beta2"
  input: "Adam/epsilon"
  input: "gradients/e5/BiasAdd_grad/tuple/control_dependency_1"
  attr {
    key: "T"
    value {
      type: DT_FLOAT
    }
  }
  attr {
    key: "_class"
    value {
      list {
        s: "loc:@e5/biases"
      }
    }
  }
  attr {
    key: "use_locking"
    value {
      b: false
    }
  }
  attr {
    key: "use_nesterov"
    value {
      b: false
    }
  }
}
node {
  name: "Adam/update_d1/weights/ApplyAdam"
  op: "ApplyAdam"
  input: "d1/weights"
  input: "d1/weights/Adam"
  input: "d1/weights/Adam_1"
  input: "beta1_power/read"
  input: "beta2_power/read"
  input: "Adam/learning_rate"
  input: "Adam/beta1"
  input: "Adam/beta2"
  input: "Adam/epsilon"
  input: "gradients/d1/conv2d_transpose_grad/tuple/control_dependency"
  attr {
    key: "T"
    value {
      type: DT_FLOAT
    }
  }
  attr {
    key: "_class"
    value {
      list {
        s: "loc:@d1/weights"
      }
    }
  }
  attr {
    key: "use_locking"
    value {
      b: false
    }
  }
  attr {
    key: "use_nesterov"
    value {
      b: false
    }
  }
}
node {
  name: "Adam/update_d1/biases/ApplyAdam"
  op: "ApplyAdam"
  input: "d1/biases"
  input: "d1/biases/Adam"
  input: "d1/biases/Adam_1"
  input: "beta1_power/read"
  input: "beta2_power/read"
  input: "Adam/learning_rate"
  input: "Adam/beta1"
  input: "Adam/beta2"
  input: "Adam/epsilon"
  input: "gradients/d1/BiasAdd_grad/tuple/control_dependency_1"
  attr {
    key: "T"
    value {
      type: DT_FLOAT
    }
  }
  attr {
    key: "_class"
    value {
      list {
        s: "loc:@d1/biases"
      }
    }
  }
  attr {
    key: "use_locking"
    value {
      b: false
    }
  }
  attr {
    key: "use_nesterov"
    value {
      b: false
    }
  }
}
node {
  name: "Adam/update_d2/weights/ApplyAdam"
  op: "ApplyAdam"
  input: "d2/weights"
  input: "d2/weights/Adam"
  input: "d2/weights/Adam_1"
  input: "beta1_power/read"
  input: "beta2_power/read"
  input: "Adam/learning_rate"
  input: "Adam/beta1"
  input: "Adam/beta2"
  input: "Adam/epsilon"
  input: "gradients/d2/conv2d_transpose_grad/tuple/control_dependency"
  attr {
    key: "T"
    value {
      type: DT_FLOAT
    }
  }
  attr {
    key: "_class"
    value {
      list {
        s: "loc:@d2/weights"
      }
    }
  }
  attr {
    key: "use_locking"
    value {
      b: false
    }
  }
  attr {
    key: "use_nesterov"
    value {
      b: false
    }
  }
}
node {
  name: "Adam/update_d2/biases/ApplyAdam"
  op: "ApplyAdam"
  input: "d2/biases"
  input: "d2/biases/Adam"
  input: "d2/biases/Adam_1"
  input: "beta1_power/read"
  input: "beta2_power/read"
  input: "Adam/learning_rate"
  input: "Adam/beta1"
  input: "Adam/beta2"
  input: "Adam/epsilon"
  input: "gradients/d2/BiasAdd_grad/tuple/control_dependency_1"
  attr {
    key: "T"
    value {
      type: DT_FLOAT
    }
  }
  attr {
    key: "_class"
    value {
      list {
        s: "loc:@d2/biases"
      }
    }
  }
  attr {
    key: "use_locking"
    value {
      b: false
    }
  }
  attr {
    key: "use_nesterov"
    value {
      b: false
    }
  }
}
node {
  name: "Adam/update_d3/weights/ApplyAdam"
  op: "ApplyAdam"
  input: "d3/weights"
  input: "d3/weights/Adam"
  input: "d3/weights/Adam_1"
  input: "beta1_power/read"
  input: "beta2_power/read"
  input: "Adam/learning_rate"
  input: "Adam/beta1"
  input: "Adam/beta2"
  input: "Adam/epsilon"
  input: "gradients/d3/conv2d_transpose_grad/tuple/control_dependency"
  attr {
    key: "T"
    value {
      type: DT_FLOAT
    }
  }
  attr {
    key: "_class"
    value {
      list {
        s: "loc:@d3/weights"
      }
    }
  }
  attr {
    key: "use_locking"
    value {
      b: false
    }
  }
  attr {
    key: "use_nesterov"
    value {
      b: false
    }
  }
}
node {
  name: "Adam/update_d3/biases/ApplyAdam"
  op: "ApplyAdam"
  input: "d3/biases"
  input: "d3/biases/Adam"
  input: "d3/biases/Adam_1"
  input: "beta1_power/read"
  input: "beta2_power/read"
  input: "Adam/learning_rate"
  input: "Adam/beta1"
  input: "Adam/beta2"
  input: "Adam/epsilon"
  input: "gradients/d3/BiasAdd_grad/tuple/control_dependency_1"
  attr {
    key: "T"
    value {
      type: DT_FLOAT
    }
  }
  attr {
    key: "_class"
    value {
      list {
        s: "loc:@d3/biases"
      }
    }
  }
  attr {
    key: "use_locking"
    value {
      b: false
    }
  }
  attr {
    key: "use_nesterov"
    value {
      b: false
    }
  }
}
node {
  name: "Adam/update_logits/weights/ApplyAdam"
  op: "ApplyAdam"
  input: "logits/weights"
  input: "logits/weights/Adam"
  input: "logits/weights/Adam_1"
  input: "beta1_power/read"
  input: "beta2_power/read"
  input: "Adam/learning_rate"
  input: "Adam/beta1"
  input: "Adam/beta2"
  input: "Adam/epsilon"
  input: "gradients/logits/Conv2D_grad/tuple/control_dependency_1"
  attr {
    key: "T"
    value {
      type: DT_FLOAT
    }
  }
  attr {
    key: "_class"
    value {
      list {
        s: "loc:@logits/weights"
      }
    }
  }
  attr {
    key: "use_locking"
    value {
      b: false
    }
  }
  attr {
    key: "use_nesterov"
    value {
      b: false
    }
  }
}
node {
  name: "Adam/update_logits/biases/ApplyAdam"
  op: "ApplyAdam"
  input: "logits/biases"
  input: "logits/biases/Adam"
  input: "logits/biases/Adam_1"
  input: "beta1_power/read"
  input: "beta2_power/read"
  input: "Adam/learning_rate"
  input: "Adam/beta1"
  input: "Adam/beta2"
  input: "Adam/epsilon"
  input: "gradients/logits/BiasAdd_grad/tuple/control_dependency_1"
  attr {
    key: "T"
    value {
      type: DT_FLOAT
    }
  }
  attr {
    key: "_class"
    value {
      list {
        s: "loc:@logits/biases"
      }
    }
  }
  attr {
    key: "use_locking"
    value {
      b: false
    }
  }
  attr {
    key: "use_nesterov"
    value {
      b: false
    }
  }
}
node {
  name: "Adam/mul"
  op: "Mul"
  input: "beta1_power/read"
  input: "Adam/beta1"
  input: "^Adam/update_d1/biases/ApplyAdam"
  input: "^Adam/update_d1/weights/ApplyAdam"
  input: "^Adam/update_d2/biases/ApplyAdam"
  input: "^Adam/update_d2/weights/ApplyAdam"
  input: "^Adam/update_d3/biases/ApplyAdam"
  input: "^Adam/update_d3/weights/ApplyAdam"
  input: "^Adam/update_e1/biases/ApplyAdam"
  input: "^Adam/update_e1/weights/ApplyAdam"
  input: "^Adam/update_e2/biases/ApplyAdam"
  input: "^Adam/update_e2/weights/ApplyAdam"
  input: "^Adam/update_e3/biases/ApplyAdam"
  input: "^Adam/update_e3/weights/ApplyAdam"
  input: "^Adam/update_e4/biases/ApplyAdam"
  input: "^Adam/update_e4/weights/ApplyAdam"
  input: "^Adam/update_e5/biases/ApplyAdam"
  input: "^Adam/update_e5/weights/ApplyAdam"
  input: "^Adam/update_logits/biases/ApplyAdam"
  input: "^Adam/update_logits/weights/ApplyAdam"
  attr {
    key: "T"
    value {
      type: DT_FLOAT
    }
  }
  attr {
    key: "_class"
    value {
      list {
        s: "loc:@d1/biases"
      }
    }
  }
}
node {
  name: "Adam/Assign"
  op: "Assign"
  input: "beta1_power"
  input: "Adam/mul"
  attr {
    key: "T"
    value {
      type: DT_FLOAT
    }
  }
  attr {
    key: "_class"
    value {
      list {
        s: "loc:@d1/biases"
      }
    }
  }
  attr {
    key: "use_locking"
    value {
      b: false
    }
  }
  attr {
    key: "validate_shape"
    value {
      b: true
    }
  }
}
node {
  name: "Adam/mul_1"
  op: "Mul"
  input: "beta2_power/read"
  input: "Adam/beta2"
  input: "^Adam/update_d1/biases/ApplyAdam"
  input: "^Adam/update_d1/weights/ApplyAdam"
  input: "^Adam/update_d2/biases/ApplyAdam"
  input: "^Adam/update_d2/weights/ApplyAdam"
  input: "^Adam/update_d3/biases/ApplyAdam"
  input: "^Adam/update_d3/weights/ApplyAdam"
  input: "^Adam/update_e1/biases/ApplyAdam"
  input: "^Adam/update_e1/weights/ApplyAdam"
  input: "^Adam/update_e2/biases/ApplyAdam"
  input: "^Adam/update_e2/weights/ApplyAdam"
  input: "^Adam/update_e3/biases/ApplyAdam"
  input: "^Adam/update_e3/weights/ApplyAdam"
  input: "^Adam/update_e4/biases/ApplyAdam"
  input: "^Adam/update_e4/weights/ApplyAdam"
  input: "^Adam/update_e5/biases/ApplyAdam"
  input: "^Adam/update_e5/weights/ApplyAdam"
  input: "^Adam/update_logits/biases/ApplyAdam"
  input: "^Adam/update_logits/weights/ApplyAdam"
  attr {
    key: "T"
    value {
      type: DT_FLOAT
    }
  }
  attr {
    key: "_class"
    value {
      list {
        s: "loc:@d1/biases"
      }
    }
  }
}
node {
  name: "Adam/Assign_1"
  op: "Assign"
  input: "beta2_power"
  input: "Adam/mul_1"
  attr {
    key: "T"
    value {
      type: DT_FLOAT
    }
  }
  attr {
    key: "_class"
    value {
      list {
        s: "loc:@d1/biases"
      }
    }
  }
  attr {
    key: "use_locking"
    value {
      b: false
    }
  }
  attr {
    key: "validate_shape"
    value {
      b: true
    }
  }
}
node {
  name: "Adam"
  op: "NoOp"
  input: "^Adam/Assign"
  input: "^Adam/Assign_1"
  input: "^Adam/update_d1/biases/ApplyAdam"
  input: "^Adam/update_d1/weights/ApplyAdam"
  input: "^Adam/update_d2/biases/ApplyAdam"
  input: "^Adam/update_d2/weights/ApplyAdam"
  input: "^Adam/update_d3/biases/ApplyAdam"
  input: "^Adam/update_d3/weights/ApplyAdam"
  input: "^Adam/update_e1/biases/ApplyAdam"
  input: "^Adam/update_e1/weights/ApplyAdam"
  input: "^Adam/update_e2/biases/ApplyAdam"
  input: "^Adam/update_e2/weights/ApplyAdam"
  input: "^Adam/update_e3/biases/ApplyAdam"
  input: "^Adam/update_e3/weights/ApplyAdam"
  input: "^Adam/update_e4/biases/ApplyAdam"
  input: "^Adam/update_e4/weights/ApplyAdam"
  input: "^Adam/update_e5/biases/ApplyAdam"
  input: "^Adam/update_e5/weights/ApplyAdam"
  input: "^Adam/update_logits/biases/ApplyAdam"
  input: "^Adam/update_logits/weights/ApplyAdam"
}
node {
  name: "init"
  op: "NoOp"
  input: "^beta1_power/Assign"
  input: "^beta2_power/Assign"
  input: "^d1/biases/Adam/Assign"
  input: "^d1/biases/Adam_1/Assign"
  input: "^d1/biases/Assign"
  input: "^d1/weights/Adam/Assign"
  input: "^d1/weights/Adam_1/Assign"
  input: "^d1/weights/Assign"
  input: "^d2/biases/Adam/Assign"
  input: "^d2/biases/Adam_1/Assign"
  input: "^d2/biases/Assign"
  input: "^d2/weights/Adam/Assign"
  input: "^d2/weights/Adam_1/Assign"
  input: "^d2/weights/Assign"
  input: "^d3/biases/Adam/Assign"
  input: "^d3/biases/Adam_1/Assign"
  input: "^d3/biases/Assign"
  input: "^d3/weights/Adam/Assign"
  input: "^d3/weights/Adam_1/Assign"
  input: "^d3/weights/Assign"
  input: "^e1/biases/Adam/Assign"
  input: "^e1/biases/Adam_1/Assign"
  input: "^e1/biases/Assign"
  input: "^e1/weights/Adam/Assign"
  input: "^e1/weights/Adam_1/Assign"
  input: "^e1/weights/Assign"
  input: "^e2/biases/Adam/Assign"
  input: "^e2/biases/Adam_1/Assign"
  input: "^e2/biases/Assign"
  input: "^e2/weights/Adam/Assign"
  input: "^e2/weights/Adam_1/Assign"
  input: "^e2/weights/Assign"
  input: "^e3/biases/Adam/Assign"
  input: "^e3/biases/Adam_1/Assign"
  input: "^e3/biases/Assign"
  input: "^e3/weights/Adam/Assign"
  input: "^e3/weights/Adam_1/Assign"
  input: "^e3/weights/Assign"
  input: "^e4/biases/Adam/Assign"
  input: "^e4/biases/Adam_1/Assign"
  input: "^e4/biases/Assign"
  input: "^e4/weights/Adam/Assign"
  input: "^e4/weights/Adam_1/Assign"
  input: "^e4/weights/Assign"
  input: "^e5/biases/Adam/Assign"
  input: "^e5/biases/Adam_1/Assign"
  input: "^e5/biases/Assign"
  input: "^e5/weights/Adam/Assign"
  input: "^e5/weights/Adam_1/Assign"
  input: "^e5/weights/Assign"
  input: "^logits/biases/Adam/Assign"
  input: "^logits/biases/Adam_1/Assign"
  input: "^logits/biases/Assign"
  input: "^logits/weights/Adam/Assign"
  input: "^logits/weights/Adam_1/Assign"
  input: "^logits/weights/Assign"
}
node {
  name: "save/Const"
  op: "Const"
  attr {
    key: "dtype"
    value {
      type: DT_STRING
    }
  }
  attr {
    key: "value"
    value {
      tensor {
        dtype: DT_STRING
        tensor_shape {
        }
        string_val: "model"
      }
    }
  }
}
node {
  name: "save/SaveV2/tensor_names"
  op: "Const"
  attr {
    key: "dtype"
    value {
      type: DT_STRING
    }
  }
  attr {
    key: "value"
    value {
      tensor {
        dtype: DT_STRING
        tensor_shape {
          dim {
            size: 56
          }
        }
        string_val: "beta1_power"
        string_val: "beta2_power"
        string_val: "d1/biases"
        string_val: "d1/biases/Adam"
        string_val: "d1/biases/Adam_1"
        string_val: "d1/weights"
        string_val: "d1/weights/Adam"
        string_val: "d1/weights/Adam_1"
        string_val: "d2/biases"
        string_val: "d2/biases/Adam"
        string_val: "d2/biases/Adam_1"
        string_val: "d2/weights"
        string_val: "d2/weights/Adam"
        string_val: "d2/weights/Adam_1"
        string_val: "d3/biases"
        string_val: "d3/biases/Adam"
        string_val: "d3/biases/Adam_1"
        string_val: "d3/weights"
        string_val: "d3/weights/Adam"
        string_val: "d3/weights/Adam_1"
        string_val: "e1/biases"
        string_val: "e1/biases/Adam"
        string_val: "e1/biases/Adam_1"
        string_val: "e1/weights"
        string_val: "e1/weights/Adam"
        string_val: "e1/weights/Adam_1"
        string_val: "e2/biases"
        string_val: "e2/biases/Adam"
        string_val: "e2/biases/Adam_1"
        string_val: "e2/weights"
        string_val: "e2/weights/Adam"
        string_val: "e2/weights/Adam_1"
        string_val: "e3/biases"
        string_val: "e3/biases/Adam"
        string_val: "e3/biases/Adam_1"
        string_val: "e3/weights"
        string_val: "e3/weights/Adam"
        string_val: "e3/weights/Adam_1"
        string_val: "e4/biases"
        string_val: "e4/biases/Adam"
        string_val: "e4/biases/Adam_1"
        string_val: "e4/weights"
        string_val: "e4/weights/Adam"
        string_val: "e4/weights/Adam_1"
        string_val: "e5/biases"
        string_val: "e5/biases/Adam"
        string_val: "e5/biases/Adam_1"
        string_val: "e5/weights"
        string_val: "e5/weights/Adam"
        string_val: "e5/weights/Adam_1"
        string_val: "logits/biases"
        string_val: "logits/biases/Adam"
        string_val: "logits/biases/Adam_1"
        string_val: "logits/weights"
        string_val: "logits/weights/Adam"
        string_val: "logits/weights/Adam_1"
      }
    }
  }
}
node {
  name: "save/SaveV2/shape_and_slices"
  op: "Const"
  attr {
    key: "dtype"
    value {
      type: DT_STRING
    }
  }
  attr {
    key: "value"
    value {
      tensor {
        dtype: DT_STRING
        tensor_shape {
          dim {
            size: 56
          }
        }
        string_val: ""
        string_val: ""
        string_val: ""
        string_val: ""
        string_val: ""
        string_val: ""
        string_val: ""
        string_val: ""
        string_val: ""
        string_val: ""
        string_val: ""
        string_val: ""
        string_val: ""
        string_val: ""
        string_val: ""
        string_val: ""
        string_val: ""
        string_val: ""
        string_val: ""
        string_val: ""
        string_val: ""
        string_val: ""
        string_val: ""
        string_val: ""
        string_val: ""
        string_val: ""
        string_val: ""
        string_val: ""
        string_val: ""
        string_val: ""
        string_val: ""
        string_val: ""
        string_val: ""
        string_val: ""
        string_val: ""
        string_val: ""
        string_val: ""
        string_val: ""
        string_val: ""
        string_val: ""
        string_val: ""
        string_val: ""
        string_val: ""
        string_val: ""
        string_val: ""
        string_val: ""
        string_val: ""
        string_val: ""
        string_val: ""
        string_val: ""
        string_val: ""
        string_val: ""
        string_val: ""
        string_val: ""
        string_val: ""
        string_val: ""
      }
    }
  }
}
node {
  name: "save/SaveV2"
  op: "SaveV2"
  input: "save/Const"
  input: "save/SaveV2/tensor_names"
  input: "save/SaveV2/shape_and_slices"
  input: "beta1_power"
  input: "beta2_power"
  input: "d1/biases"
  input: "d1/biases/Adam"
  input: "d1/biases/Adam_1"
  input: "d1/weights"
  input: "d1/weights/Adam"
  input: "d1/weights/Adam_1"
  input: "d2/biases"
  input: "d2/biases/Adam"
  input: "d2/biases/Adam_1"
  input: "d2/weights"
  input: "d2/weights/Adam"
  input: "d2/weights/Adam_1"
  input: "d3/biases"
  input: "d3/biases/Adam"
  input: "d3/biases/Adam_1"
  input: "d3/weights"
  input: "d3/weights/Adam"
  input: "d3/weights/Adam_1"
  input: "e1/biases"
  input: "e1/biases/Adam"
  input: "e1/biases/Adam_1"
  input: "e1/weights"
  input: "e1/weights/Adam"
  input: "e1/weights/Adam_1"
  input: "e2/biases"
  input: "e2/biases/Adam"
  input: "e2/biases/Adam_1"
  input: "e2/weights"
  input: "e2/weights/Adam"
  input: "e2/weights/Adam_1"
  input: "e3/biases"
  input: "e3/biases/Adam"
  input: "e3/biases/Adam_1"
  input: "e3/weights"
  input: "e3/weights/Adam"
  input: "e3/weights/Adam_1"
  input: "e4/biases"
  input: "e4/biases/Adam"
  input: "e4/biases/Adam_1"
  input: "e4/weights"
  input: "e4/weights/Adam"
  input: "e4/weights/Adam_1"
  input: "e5/biases"
  input: "e5/biases/Adam"
  input: "e5/biases/Adam_1"
  input: "e5/weights"
  input: "e5/weights/Adam"
  input: "e5/weights/Adam_1"
  input: "logits/biases"
  input: "logits/biases/Adam"
  input: "logits/biases/Adam_1"
  input: "logits/weights"
  input: "logits/weights/Adam"
  input: "logits/weights/Adam_1"
  attr {
    key: "dtypes"
    value {
      list {
        type: DT_FLOAT
        type: DT_FLOAT
        type: DT_FLOAT
        type: DT_FLOAT
        type: DT_FLOAT
        type: DT_FLOAT
        type: DT_FLOAT
        type: DT_FLOAT
        type: DT_FLOAT
        type: DT_FLOAT
        type: DT_FLOAT
        type: DT_FLOAT
        type: DT_FLOAT
        type: DT_FLOAT
        type: DT_FLOAT
        type: DT_FLOAT
        type: DT_FLOAT
        type: DT_FLOAT
        type: DT_FLOAT
        type: DT_FLOAT
        type: DT_FLOAT
        type: DT_FLOAT
        type: DT_FLOAT
        type: DT_FLOAT
        type: DT_FLOAT
        type: DT_FLOAT
        type: DT_FLOAT
        type: DT_FLOAT
        type: DT_FLOAT
        type: DT_FLOAT
        type: DT_FLOAT
        type: DT_FLOAT
        type: DT_FLOAT
        type: DT_FLOAT
        type: DT_FLOAT
        type: DT_FLOAT
        type: DT_FLOAT
        type: DT_FLOAT
        type: DT_FLOAT
        type: DT_FLOAT
        type: DT_FLOAT
        type: DT_FLOAT
        type: DT_FLOAT
        type: DT_FLOAT
        type: DT_FLOAT
        type: DT_FLOAT
        type: DT_FLOAT
        type: DT_FLOAT
        type: DT_FLOAT
        type: DT_FLOAT
        type: DT_FLOAT
        type: DT_FLOAT
        type: DT_FLOAT
        type: DT_FLOAT
        type: DT_FLOAT
        type: DT_FLOAT
      }
    }
  }
}
node {
  name: "save/control_dependency"
  op: "Identity"
  input: "save/Const"
  input: "^save/SaveV2"
  attr {
    key: "T"
    value {
      type: DT_STRING
    }
  }
  attr {
    key: "_class"
    value {
      list {
        s: "loc:@save/Const"
      }
    }
  }
}
node {
  name: "save/RestoreV2/tensor_names"
  op: "Const"
  device: "/device:CPU:0"
  attr {
    key: "dtype"
    value {
      type: DT_STRING
    }
  }
  attr {
    key: "value"
    value {
      tensor {
        dtype: DT_STRING
        tensor_shape {
          dim {
            size: 56
          }
        }
        string_val: "beta1_power"
        string_val: "beta2_power"
        string_val: "d1/biases"
        string_val: "d1/biases/Adam"
        string_val: "d1/biases/Adam_1"
        string_val: "d1/weights"
        string_val: "d1/weights/Adam"
        string_val: "d1/weights/Adam_1"
        string_val: "d2/biases"
        string_val: "d2/biases/Adam"
        string_val: "d2/biases/Adam_1"
        string_val: "d2/weights"
        string_val: "d2/weights/Adam"
        string_val: "d2/weights/Adam_1"
        string_val: "d3/biases"
        string_val: "d3/biases/Adam"
        string_val: "d3/biases/Adam_1"
        string_val: "d3/weights"
        string_val: "d3/weights/Adam"
        string_val: "d3/weights/Adam_1"
        string_val: "e1/biases"
        string_val: "e1/biases/Adam"
        string_val: "e1/biases/Adam_1"
        string_val: "e1/weights"
        string_val: "e1/weights/Adam"
        string_val: "e1/weights/Adam_1"
        string_val: "e2/biases"
        string_val: "e2/biases/Adam"
        string_val: "e2/biases/Adam_1"
        string_val: "e2/weights"
        string_val: "e2/weights/Adam"
        string_val: "e2/weights/Adam_1"
        string_val: "e3/biases"
        string_val: "e3/biases/Adam"
        string_val: "e3/biases/Adam_1"
        string_val: "e3/weights"
        string_val: "e3/weights/Adam"
        string_val: "e3/weights/Adam_1"
        string_val: "e4/biases"
        string_val: "e4/biases/Adam"
        string_val: "e4/biases/Adam_1"
        string_val: "e4/weights"
        string_val: "e4/weights/Adam"
        string_val: "e4/weights/Adam_1"
        string_val: "e5/biases"
        string_val: "e5/biases/Adam"
        string_val: "e5/biases/Adam_1"
        string_val: "e5/weights"
        string_val: "e5/weights/Adam"
        string_val: "e5/weights/Adam_1"
        string_val: "logits/biases"
        string_val: "logits/biases/Adam"
        string_val: "logits/biases/Adam_1"
        string_val: "logits/weights"
        string_val: "logits/weights/Adam"
        string_val: "logits/weights/Adam_1"
      }
    }
  }
}
node {
  name: "save/RestoreV2/shape_and_slices"
  op: "Const"
  device: "/device:CPU:0"
  attr {
    key: "dtype"
    value {
      type: DT_STRING
    }
  }
  attr {
    key: "value"
    value {
      tensor {
        dtype: DT_STRING
        tensor_shape {
          dim {
            size: 56
          }
        }
        string_val: ""
        string_val: ""
        string_val: ""
        string_val: ""
        string_val: ""
        string_val: ""
        string_val: ""
        string_val: ""
        string_val: ""
        string_val: ""
        string_val: ""
        string_val: ""
        string_val: ""
        string_val: ""
        string_val: ""
        string_val: ""
        string_val: ""
        string_val: ""
        string_val: ""
        string_val: ""
        string_val: ""
        string_val: ""
        string_val: ""
        string_val: ""
        string_val: ""
        string_val: ""
        string_val: ""
        string_val: ""
        string_val: ""
        string_val: ""
        string_val: ""
        string_val: ""
        string_val: ""
        string_val: ""
        string_val: ""
        string_val: ""
        string_val: ""
        string_val: ""
        string_val: ""
        string_val: ""
        string_val: ""
        string_val: ""
        string_val: ""
        string_val: ""
        string_val: ""
        string_val: ""
        string_val: ""
        string_val: ""
        string_val: ""
        string_val: ""
        string_val: ""
        string_val: ""
        string_val: ""
        string_val: ""
        string_val: ""
        string_val: ""
      }
    }
  }
}
node {
  name: "save/RestoreV2"
  op: "RestoreV2"
  input: "save/Const"
  input: "save/RestoreV2/tensor_names"
  input: "save/RestoreV2/shape_and_slices"
  device: "/device:CPU:0"
  attr {
    key: "dtypes"
    value {
      list {
        type: DT_FLOAT
        type: DT_FLOAT
        type: DT_FLOAT
        type: DT_FLOAT
        type: DT_FLOAT
        type: DT_FLOAT
        type: DT_FLOAT
        type: DT_FLOAT
        type: DT_FLOAT
        type: DT_FLOAT
        type: DT_FLOAT
        type: DT_FLOAT
        type: DT_FLOAT
        type: DT_FLOAT
        type: DT_FLOAT
        type: DT_FLOAT
        type: DT_FLOAT
        type: DT_FLOAT
        type: DT_FLOAT
        type: DT_FLOAT
        type: DT_FLOAT
        type: DT_FLOAT
        type: DT_FLOAT
        type: DT_FLOAT
        type: DT_FLOAT
        type: DT_FLOAT
        type: DT_FLOAT
        type: DT_FLOAT
        type: DT_FLOAT
        type: DT_FLOAT
        type: DT_FLOAT
        type: DT_FLOAT
        type: DT_FLOAT
        type: DT_FLOAT
        type: DT_FLOAT
        type: DT_FLOAT
        type: DT_FLOAT
        type: DT_FLOAT
        type: DT_FLOAT
        type: DT_FLOAT
        type: DT_FLOAT
        type: DT_FLOAT
        type: DT_FLOAT
        type: DT_FLOAT
        type: DT_FLOAT
        type: DT_FLOAT
        type: DT_FLOAT
        type: DT_FLOAT
        type: DT_FLOAT
        type: DT_FLOAT
        type: DT_FLOAT
        type: DT_FLOAT
        type: DT_FLOAT
        type: DT_FLOAT
        type: DT_FLOAT
        type: DT_FLOAT
      }
    }
  }
}
node {
  name: "save/Assign"
  op: "Assign"
  input: "beta1_power"
  input: "save/RestoreV2"
  attr {
    key: "T"
    value {
      type: DT_FLOAT
    }
  }
  attr {
    key: "_class"
    value {
      list {
        s: "loc:@d1/biases"
      }
    }
  }
  attr {
    key: "use_locking"
    value {
      b: true
    }
  }
  attr {
    key: "validate_shape"
    value {
      b: true
    }
  }
}
node {
  name: "save/Assign_1"
  op: "Assign"
  input: "beta2_power"
  input: "save/RestoreV2:1"
  attr {
    key: "T"
    value {
      type: DT_FLOAT
    }
  }
  attr {
    key: "_class"
    value {
      list {
        s: "loc:@d1/biases"
      }
    }
  }
  attr {
    key: "use_locking"
    value {
      b: true
    }
  }
  attr {
    key: "validate_shape"
    value {
      b: true
    }
  }
}
node {
  name: "save/Assign_2"
  op: "Assign"
  input: "d1/biases"
  input: "save/RestoreV2:2"
  attr {
    key: "T"
    value {
      type: DT_FLOAT
    }
  }
  attr {
    key: "_class"
    value {
      list {
        s: "loc:@d1/biases"
      }
    }
  }
  attr {
    key: "use_locking"
    value {
      b: true
    }
  }
  attr {
    key: "validate_shape"
    value {
      b: true
    }
  }
}
node {
  name: "save/Assign_3"
  op: "Assign"
  input: "d1/biases/Adam"
  input: "save/RestoreV2:3"
  attr {
    key: "T"
    value {
      type: DT_FLOAT
    }
  }
  attr {
    key: "_class"
    value {
      list {
        s: "loc:@d1/biases"
      }
    }
  }
  attr {
    key: "use_locking"
    value {
      b: true
    }
  }
  attr {
    key: "validate_shape"
    value {
      b: true
    }
  }
}
node {
  name: "save/Assign_4"
  op: "Assign"
  input: "d1/biases/Adam_1"
  input: "save/RestoreV2:4"
  attr {
    key: "T"
    value {
      type: DT_FLOAT
    }
  }
  attr {
    key: "_class"
    value {
      list {
        s: "loc:@d1/biases"
      }
    }
  }
  attr {
    key: "use_locking"
    value {
      b: true
    }
  }
  attr {
    key: "validate_shape"
    value {
      b: true
    }
  }
}
node {
  name: "save/Assign_5"
  op: "Assign"
  input: "d1/weights"
  input: "save/RestoreV2:5"
  attr {
    key: "T"
    value {
      type: DT_FLOAT
    }
  }
  attr {
    key: "_class"
    value {
      list {
        s: "loc:@d1/weights"
      }
    }
  }
  attr {
    key: "use_locking"
    value {
      b: true
    }
  }
  attr {
    key: "validate_shape"
    value {
      b: true
    }
  }
}
node {
  name: "save/Assign_6"
  op: "Assign"
  input: "d1/weights/Adam"
  input: "save/RestoreV2:6"
  attr {
    key: "T"
    value {
      type: DT_FLOAT
    }
  }
  attr {
    key: "_class"
    value {
      list {
        s: "loc:@d1/weights"
      }
    }
  }
  attr {
    key: "use_locking"
    value {
      b: true
    }
  }
  attr {
    key: "validate_shape"
    value {
      b: true
    }
  }
}
node {
  name: "save/Assign_7"
  op: "Assign"
  input: "d1/weights/Adam_1"
  input: "save/RestoreV2:7"
  attr {
    key: "T"
    value {
      type: DT_FLOAT
    }
  }
  attr {
    key: "_class"
    value {
      list {
        s: "loc:@d1/weights"
      }
    }
  }
  attr {
    key: "use_locking"
    value {
      b: true
    }
  }
  attr {
    key: "validate_shape"
    value {
      b: true
    }
  }
}
node {
  name: "save/Assign_8"
  op: "Assign"
  input: "d2/biases"
  input: "save/RestoreV2:8"
  attr {
    key: "T"
    value {
      type: DT_FLOAT
    }
  }
  attr {
    key: "_class"
    value {
      list {
        s: "loc:@d2/biases"
      }
    }
  }
  attr {
    key: "use_locking"
    value {
      b: true
    }
  }
  attr {
    key: "validate_shape"
    value {
      b: true
    }
  }
}
node {
  name: "save/Assign_9"
  op: "Assign"
  input: "d2/biases/Adam"
  input: "save/RestoreV2:9"
  attr {
    key: "T"
    value {
      type: DT_FLOAT
    }
  }
  attr {
    key: "_class"
    value {
      list {
        s: "loc:@d2/biases"
      }
    }
  }
  attr {
    key: "use_locking"
    value {
      b: true
    }
  }
  attr {
    key: "validate_shape"
    value {
      b: true
    }
  }
}
node {
  name: "save/Assign_10"
  op: "Assign"
  input: "d2/biases/Adam_1"
  input: "save/RestoreV2:10"
  attr {
    key: "T"
    value {
      type: DT_FLOAT
    }
  }
  attr {
    key: "_class"
    value {
      list {
        s: "loc:@d2/biases"
      }
    }
  }
  attr {
    key: "use_locking"
    value {
      b: true
    }
  }
  attr {
    key: "validate_shape"
    value {
      b: true
    }
  }
}
node {
  name: "save/Assign_11"
  op: "Assign"
  input: "d2/weights"
  input: "save/RestoreV2:11"
  attr {
    key: "T"
    value {
      type: DT_FLOAT
    }
  }
  attr {
    key: "_class"
    value {
      list {
        s: "loc:@d2/weights"
      }
    }
  }
  attr {
    key: "use_locking"
    value {
      b: true
    }
  }
  attr {
    key: "validate_shape"
    value {
      b: true
    }
  }
}
node {
  name: "save/Assign_12"
  op: "Assign"
  input: "d2/weights/Adam"
  input: "save/RestoreV2:12"
  attr {
    key: "T"
    value {
      type: DT_FLOAT
    }
  }
  attr {
    key: "_class"
    value {
      list {
        s: "loc:@d2/weights"
      }
    }
  }
  attr {
    key: "use_locking"
    value {
      b: true
    }
  }
  attr {
    key: "validate_shape"
    value {
      b: true
    }
  }
}
node {
  name: "save/Assign_13"
  op: "Assign"
  input: "d2/weights/Adam_1"
  input: "save/RestoreV2:13"
  attr {
    key: "T"
    value {
      type: DT_FLOAT
    }
  }
  attr {
    key: "_class"
    value {
      list {
        s: "loc:@d2/weights"
      }
    }
  }
  attr {
    key: "use_locking"
    value {
      b: true
    }
  }
  attr {
    key: "validate_shape"
    value {
      b: true
    }
  }
}
node {
  name: "save/Assign_14"
  op: "Assign"
  input: "d3/biases"
  input: "save/RestoreV2:14"
  attr {
    key: "T"
    value {
      type: DT_FLOAT
    }
  }
  attr {
    key: "_class"
    value {
      list {
        s: "loc:@d3/biases"
      }
    }
  }
  attr {
    key: "use_locking"
    value {
      b: true
    }
  }
  attr {
    key: "validate_shape"
    value {
      b: true
    }
  }
}
node {
  name: "save/Assign_15"
  op: "Assign"
  input: "d3/biases/Adam"
  input: "save/RestoreV2:15"
  attr {
    key: "T"
    value {
      type: DT_FLOAT
    }
  }
  attr {
    key: "_class"
    value {
      list {
        s: "loc:@d3/biases"
      }
    }
  }
  attr {
    key: "use_locking"
    value {
      b: true
    }
  }
  attr {
    key: "validate_shape"
    value {
      b: true
    }
  }
}
node {
  name: "save/Assign_16"
  op: "Assign"
  input: "d3/biases/Adam_1"
  input: "save/RestoreV2:16"
  attr {
    key: "T"
    value {
      type: DT_FLOAT
    }
  }
  attr {
    key: "_class"
    value {
      list {
        s: "loc:@d3/biases"
      }
    }
  }
  attr {
    key: "use_locking"
    value {
      b: true
    }
  }
  attr {
    key: "validate_shape"
    value {
      b: true
    }
  }
}
node {
  name: "save/Assign_17"
  op: "Assign"
  input: "d3/weights"
  input: "save/RestoreV2:17"
  attr {
    key: "T"
    value {
      type: DT_FLOAT
    }
  }
  attr {
    key: "_class"
    value {
      list {
        s: "loc:@d3/weights"
      }
    }
  }
  attr {
    key: "use_locking"
    value {
      b: true
    }
  }
  attr {
    key: "validate_shape"
    value {
      b: true
    }
  }
}
node {
  name: "save/Assign_18"
  op: "Assign"
  input: "d3/weights/Adam"
  input: "save/RestoreV2:18"
  attr {
    key: "T"
    value {
      type: DT_FLOAT
    }
  }
  attr {
    key: "_class"
    value {
      list {
        s: "loc:@d3/weights"
      }
    }
  }
  attr {
    key: "use_locking"
    value {
      b: true
    }
  }
  attr {
    key: "validate_shape"
    value {
      b: true
    }
  }
}
node {
  name: "save/Assign_19"
  op: "Assign"
  input: "d3/weights/Adam_1"
  input: "save/RestoreV2:19"
  attr {
    key: "T"
    value {
      type: DT_FLOAT
    }
  }
  attr {
    key: "_class"
    value {
      list {
        s: "loc:@d3/weights"
      }
    }
  }
  attr {
    key: "use_locking"
    value {
      b: true
    }
  }
  attr {
    key: "validate_shape"
    value {
      b: true
    }
  }
}
node {
  name: "save/Assign_20"
  op: "Assign"
  input: "e1/biases"
  input: "save/RestoreV2:20"
  attr {
    key: "T"
    value {
      type: DT_FLOAT
    }
  }
  attr {
    key: "_class"
    value {
      list {
        s: "loc:@e1/biases"
      }
    }
  }
  attr {
    key: "use_locking"
    value {
      b: true
    }
  }
  attr {
    key: "validate_shape"
    value {
      b: true
    }
  }
}
node {
  name: "save/Assign_21"
  op: "Assign"
  input: "e1/biases/Adam"
  input: "save/RestoreV2:21"
  attr {
    key: "T"
    value {
      type: DT_FLOAT
    }
  }
  attr {
    key: "_class"
    value {
      list {
        s: "loc:@e1/biases"
      }
    }
  }
  attr {
    key: "use_locking"
    value {
      b: true
    }
  }
  attr {
    key: "validate_shape"
    value {
      b: true
    }
  }
}
node {
  name: "save/Assign_22"
  op: "Assign"
  input: "e1/biases/Adam_1"
  input: "save/RestoreV2:22"
  attr {
    key: "T"
    value {
      type: DT_FLOAT
    }
  }
  attr {
    key: "_class"
    value {
      list {
        s: "loc:@e1/biases"
      }
    }
  }
  attr {
    key: "use_locking"
    value {
      b: true
    }
  }
  attr {
    key: "validate_shape"
    value {
      b: true
    }
  }
}
node {
  name: "save/Assign_23"
  op: "Assign"
  input: "e1/weights"
  input: "save/RestoreV2:23"
  attr {
    key: "T"
    value {
      type: DT_FLOAT
    }
  }
  attr {
    key: "_class"
    value {
      list {
        s: "loc:@e1/weights"
      }
    }
  }
  attr {
    key: "use_locking"
    value {
      b: true
    }
  }
  attr {
    key: "validate_shape"
    value {
      b: true
    }
  }
}
node {
  name: "save/Assign_24"
  op: "Assign"
  input: "e1/weights/Adam"
  input: "save/RestoreV2:24"
  attr {
    key: "T"
    value {
      type: DT_FLOAT
    }
  }
  attr {
    key: "_class"
    value {
      list {
        s: "loc:@e1/weights"
      }
    }
  }
  attr {
    key: "use_locking"
    value {
      b: true
    }
  }
  attr {
    key: "validate_shape"
    value {
      b: true
    }
  }
}
node {
  name: "save/Assign_25"
  op: "Assign"
  input: "e1/weights/Adam_1"
  input: "save/RestoreV2:25"
  attr {
    key: "T"
    value {
      type: DT_FLOAT
    }
  }
  attr {
    key: "_class"
    value {
      list {
        s: "loc:@e1/weights"
      }
    }
  }
  attr {
    key: "use_locking"
    value {
      b: true
    }
  }
  attr {
    key: "validate_shape"
    value {
      b: true
    }
  }
}
node {
  name: "save/Assign_26"
  op: "Assign"
  input: "e2/biases"
  input: "save/RestoreV2:26"
  attr {
    key: "T"
    value {
      type: DT_FLOAT
    }
  }
  attr {
    key: "_class"
    value {
      list {
        s: "loc:@e2/biases"
      }
    }
  }
  attr {
    key: "use_locking"
    value {
      b: true
    }
  }
  attr {
    key: "validate_shape"
    value {
      b: true
    }
  }
}
node {
  name: "save/Assign_27"
  op: "Assign"
  input: "e2/biases/Adam"
  input: "save/RestoreV2:27"
  attr {
    key: "T"
    value {
      type: DT_FLOAT
    }
  }
  attr {
    key: "_class"
    value {
      list {
        s: "loc:@e2/biases"
      }
    }
  }
  attr {
    key: "use_locking"
    value {
      b: true
    }
  }
  attr {
    key: "validate_shape"
    value {
      b: true
    }
  }
}
node {
  name: "save/Assign_28"
  op: "Assign"
  input: "e2/biases/Adam_1"
  input: "save/RestoreV2:28"
  attr {
    key: "T"
    value {
      type: DT_FLOAT
    }
  }
  attr {
    key: "_class"
    value {
      list {
        s: "loc:@e2/biases"
      }
    }
  }
  attr {
    key: "use_locking"
    value {
      b: true
    }
  }
  attr {
    key: "validate_shape"
    value {
      b: true
    }
  }
}
node {
  name: "save/Assign_29"
  op: "Assign"
  input: "e2/weights"
  input: "save/RestoreV2:29"
  attr {
    key: "T"
    value {
      type: DT_FLOAT
    }
  }
  attr {
    key: "_class"
    value {
      list {
        s: "loc:@e2/weights"
      }
    }
  }
  attr {
    key: "use_locking"
    value {
      b: true
    }
  }
  attr {
    key: "validate_shape"
    value {
      b: true
    }
  }
}
node {
  name: "save/Assign_30"
  op: "Assign"
  input: "e2/weights/Adam"
  input: "save/RestoreV2:30"
  attr {
    key: "T"
    value {
      type: DT_FLOAT
    }
  }
  attr {
    key: "_class"
    value {
      list {
        s: "loc:@e2/weights"
      }
    }
  }
  attr {
    key: "use_locking"
    value {
      b: true
    }
  }
  attr {
    key: "validate_shape"
    value {
      b: true
    }
  }
}
node {
  name: "save/Assign_31"
  op: "Assign"
  input: "e2/weights/Adam_1"
  input: "save/RestoreV2:31"
  attr {
    key: "T"
    value {
      type: DT_FLOAT
    }
  }
  attr {
    key: "_class"
    value {
      list {
        s: "loc:@e2/weights"
      }
    }
  }
  attr {
    key: "use_locking"
    value {
      b: true
    }
  }
  attr {
    key: "validate_shape"
    value {
      b: true
    }
  }
}
node {
  name: "save/Assign_32"
  op: "Assign"
  input: "e3/biases"
  input: "save/RestoreV2:32"
  attr {
    key: "T"
    value {
      type: DT_FLOAT
    }
  }
  attr {
    key: "_class"
    value {
      list {
        s: "loc:@e3/biases"
      }
    }
  }
  attr {
    key: "use_locking"
    value {
      b: true
    }
  }
  attr {
    key: "validate_shape"
    value {
      b: true
    }
  }
}
node {
  name: "save/Assign_33"
  op: "Assign"
  input: "e3/biases/Adam"
  input: "save/RestoreV2:33"
  attr {
    key: "T"
    value {
      type: DT_FLOAT
    }
  }
  attr {
    key: "_class"
    value {
      list {
        s: "loc:@e3/biases"
      }
    }
  }
  attr {
    key: "use_locking"
    value {
      b: true
    }
  }
  attr {
    key: "validate_shape"
    value {
      b: true
    }
  }
}
node {
  name: "save/Assign_34"
  op: "Assign"
  input: "e3/biases/Adam_1"
  input: "save/RestoreV2:34"
  attr {
    key: "T"
    value {
      type: DT_FLOAT
    }
  }
  attr {
    key: "_class"
    value {
      list {
        s: "loc:@e3/biases"
      }
    }
  }
  attr {
    key: "use_locking"
    value {
      b: true
    }
  }
  attr {
    key: "validate_shape"
    value {
      b: true
    }
  }
}
node {
  name: "save/Assign_35"
  op: "Assign"
  input: "e3/weights"
  input: "save/RestoreV2:35"
  attr {
    key: "T"
    value {
      type: DT_FLOAT
    }
  }
  attr {
    key: "_class"
    value {
      list {
        s: "loc:@e3/weights"
      }
    }
  }
  attr {
    key: "use_locking"
    value {
      b: true
    }
  }
  attr {
    key: "validate_shape"
    value {
      b: true
    }
  }
}
node {
  name: "save/Assign_36"
  op: "Assign"
  input: "e3/weights/Adam"
  input: "save/RestoreV2:36"
  attr {
    key: "T"
    value {
      type: DT_FLOAT
    }
  }
  attr {
    key: "_class"
    value {
      list {
        s: "loc:@e3/weights"
      }
    }
  }
  attr {
    key: "use_locking"
    value {
      b: true
    }
  }
  attr {
    key: "validate_shape"
    value {
      b: true
    }
  }
}
node {
  name: "save/Assign_37"
  op: "Assign"
  input: "e3/weights/Adam_1"
  input: "save/RestoreV2:37"
  attr {
    key: "T"
    value {
      type: DT_FLOAT
    }
  }
  attr {
    key: "_class"
    value {
      list {
        s: "loc:@e3/weights"
      }
    }
  }
  attr {
    key: "use_locking"
    value {
      b: true
    }
  }
  attr {
    key: "validate_shape"
    value {
      b: true
    }
  }
}
node {
  name: "save/Assign_38"
  op: "Assign"
  input: "e4/biases"
  input: "save/RestoreV2:38"
  attr {
    key: "T"
    value {
      type: DT_FLOAT
    }
  }
  attr {
    key: "_class"
    value {
      list {
        s: "loc:@e4/biases"
      }
    }
  }
  attr {
    key: "use_locking"
    value {
      b: true
    }
  }
  attr {
    key: "validate_shape"
    value {
      b: true
    }
  }
}
node {
  name: "save/Assign_39"
  op: "Assign"
  input: "e4/biases/Adam"
  input: "save/RestoreV2:39"
  attr {
    key: "T"
    value {
      type: DT_FLOAT
    }
  }
  attr {
    key: "_class"
    value {
      list {
        s: "loc:@e4/biases"
      }
    }
  }
  attr {
    key: "use_locking"
    value {
      b: true
    }
  }
  attr {
    key: "validate_shape"
    value {
      b: true
    }
  }
}
node {
  name: "save/Assign_40"
  op: "Assign"
  input: "e4/biases/Adam_1"
  input: "save/RestoreV2:40"
  attr {
    key: "T"
    value {
      type: DT_FLOAT
    }
  }
  attr {
    key: "_class"
    value {
      list {
        s: "loc:@e4/biases"
      }
    }
  }
  attr {
    key: "use_locking"
    value {
      b: true
    }
  }
  attr {
    key: "validate_shape"
    value {
      b: true
    }
  }
}
node {
  name: "save/Assign_41"
  op: "Assign"
  input: "e4/weights"
  input: "save/RestoreV2:41"
  attr {
    key: "T"
    value {
      type: DT_FLOAT
    }
  }
  attr {
    key: "_class"
    value {
      list {
        s: "loc:@e4/weights"
      }
    }
  }
  attr {
    key: "use_locking"
    value {
      b: true
    }
  }
  attr {
    key: "validate_shape"
    value {
      b: true
    }
  }
}
node {
  name: "save/Assign_42"
  op: "Assign"
  input: "e4/weights/Adam"
  input: "save/RestoreV2:42"
  attr {
    key: "T"
    value {
      type: DT_FLOAT
    }
  }
  attr {
    key: "_class"
    value {
      list {
        s: "loc:@e4/weights"
      }
    }
  }
  attr {
    key: "use_locking"
    value {
      b: true
    }
  }
  attr {
    key: "validate_shape"
    value {
      b: true
    }
  }
}
node {
  name: "save/Assign_43"
  op: "Assign"
  input: "e4/weights/Adam_1"
  input: "save/RestoreV2:43"
  attr {
    key: "T"
    value {
      type: DT_FLOAT
    }
  }
  attr {
    key: "_class"
    value {
      list {
        s: "loc:@e4/weights"
      }
    }
  }
  attr {
    key: "use_locking"
    value {
      b: true
    }
  }
  attr {
    key: "validate_shape"
    value {
      b: true
    }
  }
}
node {
  name: "save/Assign_44"
  op: "Assign"
  input: "e5/biases"
  input: "save/RestoreV2:44"
  attr {
    key: "T"
    value {
      type: DT_FLOAT
    }
  }
  attr {
    key: "_class"
    value {
      list {
        s: "loc:@e5/biases"
      }
    }
  }
  attr {
    key: "use_locking"
    value {
      b: true
    }
  }
  attr {
    key: "validate_shape"
    value {
      b: true
    }
  }
}
node {
  name: "save/Assign_45"
  op: "Assign"
  input: "e5/biases/Adam"
  input: "save/RestoreV2:45"
  attr {
    key: "T"
    value {
      type: DT_FLOAT
    }
  }
  attr {
    key: "_class"
    value {
      list {
        s: "loc:@e5/biases"
      }
    }
  }
  attr {
    key: "use_locking"
    value {
      b: true
    }
  }
  attr {
    key: "validate_shape"
    value {
      b: true
    }
  }
}
node {
  name: "save/Assign_46"
  op: "Assign"
  input: "e5/biases/Adam_1"
  input: "save/RestoreV2:46"
  attr {
    key: "T"
    value {
      type: DT_FLOAT
    }
  }
  attr {
    key: "_class"
    value {
      list {
        s: "loc:@e5/biases"
      }
    }
  }
  attr {
    key: "use_locking"
    value {
      b: true
    }
  }
  attr {
    key: "validate_shape"
    value {
      b: true
    }
  }
}
node {
  name: "save/Assign_47"
  op: "Assign"
  input: "e5/weights"
  input: "save/RestoreV2:47"
  attr {
    key: "T"
    value {
      type: DT_FLOAT
    }
  }
  attr {
    key: "_class"
    value {
      list {
        s: "loc:@e5/weights"
      }
    }
  }
  attr {
    key: "use_locking"
    value {
      b: true
    }
  }
  attr {
    key: "validate_shape"
    value {
      b: true
    }
  }
}
node {
  name: "save/Assign_48"
  op: "Assign"
  input: "e5/weights/Adam"
  input: "save/RestoreV2:48"
  attr {
    key: "T"
    value {
      type: DT_FLOAT
    }
  }
  attr {
    key: "_class"
    value {
      list {
        s: "loc:@e5/weights"
      }
    }
  }
  attr {
    key: "use_locking"
    value {
      b: true
    }
  }
  attr {
    key: "validate_shape"
    value {
      b: true
    }
  }
}
node {
  name: "save/Assign_49"
  op: "Assign"
  input: "e5/weights/Adam_1"
  input: "save/RestoreV2:49"
  attr {
    key: "T"
    value {
      type: DT_FLOAT
    }
  }
  attr {
    key: "_class"
    value {
      list {
        s: "loc:@e5/weights"
      }
    }
  }
  attr {
    key: "use_locking"
    value {
      b: true
    }
  }
  attr {
    key: "validate_shape"
    value {
      b: true
    }
  }
}
node {
  name: "save/Assign_50"
  op: "Assign"
  input: "logits/biases"
  input: "save/RestoreV2:50"
  attr {
    key: "T"
    value {
      type: DT_FLOAT
    }
  }
  attr {
    key: "_class"
    value {
      list {
        s: "loc:@logits/biases"
      }
    }
  }
  attr {
    key: "use_locking"
    value {
      b: true
    }
  }
  attr {
    key: "validate_shape"
    value {
      b: true
    }
  }
}
node {
  name: "save/Assign_51"
  op: "Assign"
  input: "logits/biases/Adam"
  input: "save/RestoreV2:51"
  attr {
    key: "T"
    value {
      type: DT_FLOAT
    }
  }
  attr {
    key: "_class"
    value {
      list {
        s: "loc:@logits/biases"
      }
    }
  }
  attr {
    key: "use_locking"
    value {
      b: true
    }
  }
  attr {
    key: "validate_shape"
    value {
      b: true
    }
  }
}
node {
  name: "save/Assign_52"
  op: "Assign"
  input: "logits/biases/Adam_1"
  input: "save/RestoreV2:52"
  attr {
    key: "T"
    value {
      type: DT_FLOAT
    }
  }
  attr {
    key: "_class"
    value {
      list {
        s: "loc:@logits/biases"
      }
    }
  }
  attr {
    key: "use_locking"
    value {
      b: true
    }
  }
  attr {
    key: "validate_shape"
    value {
      b: true
    }
  }
}
node {
  name: "save/Assign_53"
  op: "Assign"
  input: "logits/weights"
  input: "save/RestoreV2:53"
  attr {
    key: "T"
    value {
      type: DT_FLOAT
    }
  }
  attr {
    key: "_class"
    value {
      list {
        s: "loc:@logits/weights"
      }
    }
  }
  attr {
    key: "use_locking"
    value {
      b: true
    }
  }
  attr {
    key: "validate_shape"
    value {
      b: true
    }
  }
}
node {
  name: "save/Assign_54"
  op: "Assign"
  input: "logits/weights/Adam"
  input: "save/RestoreV2:54"
  attr {
    key: "T"
    value {
      type: DT_FLOAT
    }
  }
  attr {
    key: "_class"
    value {
      list {
        s: "loc:@logits/weights"
      }
    }
  }
  attr {
    key: "use_locking"
    value {
      b: true
    }
  }
  attr {
    key: "validate_shape"
    value {
      b: true
    }
  }
}
node {
  name: "save/Assign_55"
  op: "Assign"
  input: "logits/weights/Adam_1"
  input: "save/RestoreV2:55"
  attr {
    key: "T"
    value {
      type: DT_FLOAT
    }
  }
  attr {
    key: "_class"
    value {
      list {
        s: "loc:@logits/weights"
      }
    }
  }
  attr {
    key: "use_locking"
    value {
      b: true
    }
  }
  attr {
    key: "validate_shape"
    value {
      b: true
    }
  }
}
node {
  name: "save/restore_all"
  op: "NoOp"
  input: "^save/Assign"
  input: "^save/Assign_1"
  input: "^save/Assign_10"
  input: "^save/Assign_11"
  input: "^save/Assign_12"
  input: "^save/Assign_13"
  input: "^save/Assign_14"
  input: "^save/Assign_15"
  input: "^save/Assign_16"
  input: "^save/Assign_17"
  input: "^save/Assign_18"
  input: "^save/Assign_19"
  input: "^save/Assign_2"
  input: "^save/Assign_20"
  input: "^save/Assign_21"
  input: "^save/Assign_22"
  input: "^save/Assign_23"
  input: "^save/Assign_24"
  input: "^save/Assign_25"
  input: "^save/Assign_26"
  input: "^save/Assign_27"
  input: "^save/Assign_28"
  input: "^save/Assign_29"
  input: "^save/Assign_3"
  input: "^save/Assign_30"
  input: "^save/Assign_31"
  input: "^save/Assign_32"
  input: "^save/Assign_33"
  input: "^save/Assign_34"
  input: "^save/Assign_35"
  input: "^save/Assign_36"
  input: "^save/Assign_37"
  input: "^save/Assign_38"
  input: "^save/Assign_39"
  input: "^save/Assign_4"
  input: "^save/Assign_40"
  input: "^save/Assign_41"
  input: "^save/Assign_42"
  input: "^save/Assign_43"
  input: "^save/Assign_44"
  input: "^save/Assign_45"
  input: "^save/Assign_46"
  input: "^save/Assign_47"
  input: "^save/Assign_48"
  input: "^save/Assign_49"
  input: "^save/Assign_5"
  input: "^save/Assign_50"
  input: "^save/Assign_51"
  input: "^save/Assign_52"
  input: "^save/Assign_53"
  input: "^save/Assign_54"
  input: "^save/Assign_55"
  input: "^save/Assign_6"
  input: "^save/Assign_7"
  input: "^save/Assign_8"
  input: "^save/Assign_9"
}
versions {
  producer: 26
}
